net/pytorch/checkpoint_simp_small.pth (torch, 608847 bytes, 17 tensors)

inc.double_conv.0.weight f4 [64, 3, 3, 3]
0.09522459 0.091615304 0.1763241 0.18041645 0.048464425 0.02478059 0.038342748 0.07684335
0.13203524 0.21246126 0.19195089 -0.04611701 0.17018569 -0.17378113 -0.050073985 0.07337288
0.04385257 -0.13659444 -0.09745133 -0.12013073 -0.1066002 0.1130251 -0.10710127 -0.021647058
0.0030578745 0.06741855 0.045309015 -0.045673944 0.0006931446 0.13450512 -0.14607404 -0.012273322
-0.029801976 0.07006127 -0.07024619 -0.034613002 -0.11936749 0.122127086 0.14191832 -0.11214514
-0.023762597 0.030159043 -0.121137366 0.06794933 -0.106704205 0.12358223 -0.17155415 -0.17774874
-0.14363496 -0.16217536 -0.1969669 0.051403217 -0.15323322 0.06361537 -0.117154315 -0.10776671
0.19330148 0.13320655 -0.08938104 0.029561078 -0.048371434 -0.11136664 -0.19926386 -0.1580641
0.11802291 -0.17104486 -0.006396682 -0.109835036 -0.04398654 -0.11712139 0.14095479 -0.19554745
0.11857997 0.1840741 0.044613928 0.037102267 0.08101717 -0.044840086 -0.015760968 0.036805138
-0.09373198 0.10605382 0.040499266 -0.03363278 -0.1350106 -0.1028235 0.12765843 0.12430735
-0.11798063 -0.1135661 -0.096222304 0.14504278 -0.069690466 0.08944531 -0.031775612 0.171993
-0.06353835 -0.0906689 -0.20760974 0.120799154 -0.07938547 -0.069914415 0.0022989386 0.05222006
-0.1012131 0.016034834 0.047784723 -0.009438649 0.15649872 0.049363922 -0.066309854 -0.011024478
0.013055301 -0.04678852 0.07287082 0.07362733 0.039375924 -0.0030796987 0.094491966 0.02879046
0.119278185 0.06511016 0.124041066 -0.08362888 0.032364327 -0.14601988 -0.08186968 0.16743194
-0.14965783 -0.046221726 -0.16682126 -0.016753808 0.042383514 -0.15053289 -0.054815385 -0.044266697
-0.09937185 0.13851091 0.042428497 -0.03236054 -0.13226527 0.027494615 0.07767608 -0.050826523
0.1805936 -0.040445633 -0.043439236 0.008323473 -0.06483075 0.08791312 -0.045469526 -0.013361417
0.17822433 0.11038665 -0.08902002 -0.158553 0.072233185 0.19396922 -0.086133376 -0.1388547
0.12364598 -0.06827226 0.020384302 0.15930562 0.1533778 -0.10029893 0.02692757 -0.20770103
-0.04550844 0.10548561 0.10465299 0.16992627 0.122665174 0.14417239 -0.03739055 0.014091843
0.12676893 0.16370133 -0.05874678 0.13731669 0.0760898 0.14546579 0.100711405 -0.034630902
0.12895559 -0.08380328 -0.05540201 -0.119008765 0.109886155 0.144084 0.14156036 0.036958285
-0.0012120113 0.10434558 -0.04443236 -0.12074255 0.028125796 -0.07893357 0.012318979 0.12592886
-0.11111855 -0.053419758 0.041629594 -0.1537901 -0.06423571 0.020827066 -0.064879596 0.11903249
0.10035259 -0.14056239 -0.09203319 -0.15330593 0.023200393 0.1309189 0.088045746 -0.13594764
-0.0054498157 -0.07167423 0.086836495 -0.09070794 0.16825005 -0.003395905 -0.14715546 0.07151678
-0.10755477 0.14989398 -0.020551303 -0.14178698 0.13502909 0.1628136 0.084202535 -0.00014927468
0.017486133 0.028145112 -0.034990974 -0.15395617 -0.16401039 -0.17968728 -0.02715981 0.15057282
-0.0402833 -0.04801136 0.07166201 -0.1836084 0.058824312 -0.00809978 0.04871098 -0.10344787
0.12133239 0.15194422 0.10077662 -0.18447372 0.19415852 0.04485161 -0.089484505 0.083921306
00000000: 1c05 c33d cea0 bb3d 4e8e 343e 17bf 383e
00000010: a282 463d aa00 cb3c 490d 1d3d 0c60 9d3d
00000020: 3f34 073e 728f 593e c68e 443e 31e5 3cbd
00000030: 2845 2e3e aef3 31be 611a 4dbd 8544 963d
00000040: c19e 333d 6adf 0bbe 9094 c7bd 1a07 f6bd
00000050: 3551 dabd b479 e73d e957 dbbd 2c55 b1bc
00000060: 9f66 483b bd12 8a3d f295 393d 9a14 3bbd
00000070: 26b4 353a b6bb 093e 6f94 15be 0b16 49bc
00000080: 4623 f4bc 487c 8f3d 3cdd 8fbd 5dc6 0dbd
00000090: f176 f4bd c41d fa3d 0953 113e 5aac e5bd
000000a0: c7a9 c2bc 1910 f73c de16 f8bd 0529 8b3d
000000b0: bc87 dabd ae18 fd3d e4ab 2fbe c403 36be
000000c0: 0b15 13be 4c11 26be b1b1 49be 2e8c 523d
000000d0: 2be9 1cbe c648 823d 9aee efbd cbb4 dcbd
000000e0: d3f0 453e 4c67 083e 680d b7bd 132a f23c
000000f0: 2021 46bd 3114 e4bd d30b 4cbe 8edb 21be
00000100: ffb5 f13d 6226 2fbe 429b d1bb 31f1 e0bd
00000110: 3b2b 34bd 57dd efbd 7456 103e 973d 48be
00000120: 0eda f23d ec7d 3c3e 18bd 363d 8cf8 173d
00000130: 54ec a53d 3daa 37bd 251d 81bc fcc0 163d
00000140: 8df6 bfbd bf32 d93d 8fe2 253d 87c2 09bd
00000150: 3840 0abe 2195 d2bd e4b8 023e da94 fe3d
00000160: d49f f1bd 5895 e8bd 3310 c5bd 1886 143e
00000170: e0b9 8ebd 1a2f b73d 2527 02bd ef1e 303e
00000180: 6520 82bd 9eb0 b9bd a697 54be 8c65 f73d
00000190: d994 a2bd 4a2f 8fbd caa9 163b b4e4 553d
000001a0: d048 cfbd 7c5b 833c eab9 433d 90a4 1abc
000001b0: 3341 203e d331 4a3d 76cd 87bd 03a0 34bc
000001c0: e7e5 553c 52a5 3fbd 4c3d 953d edc9 963d
000001d0: a648 213d c5d4 49bb 0185 c13d f9d9 eb3c
000001e0: 1f48 f43d 7a58 853d 3e09 fe3d 9e45 abbd
000001f0: 7590 043d 3c86 15be 4aab a7bd 4773 2b3e
00000200: e73f 19be fe52 3dbd 31d3 2abe 483f 89bc
00000210: 569a 2d3d 4b25 1abe 1986 60bd ff50 35bd
00000220: 7883 cbbd ced5 0d3e 81c9 2d3d 7c8c 04bd
00000230: 8c70 07be 633c e13c a314 9f3d 792f 50bd
00000240: 87ed 383e 52aa 25bd 57ed 31bd 2d5f 083c
00000250: fcc5 84bd cb0b b43d 413e 3abd d8e9 5abc
00000260: 7080 363e 6512 e23d 2150 b6bd b85b 22be
00000270: feee 933d de9f 463e b266 b0bd ed2f 0ebe
00000280: 1b3a fd3d 54d2 8bbd fbfc a63c 0321 233e
00000290: 120f 1d3e 8769 cdbd 3597 dc3c 94af 54be
000002a0: 0f67 3abd d708 d83d 4f54 d63d 2701 2e3e
000002b0: e137 fb3d eda1 133e d526 19bd 79e1 663c
000002c0: b7cf 013e 52a1 273e 77a0 70bd bf9c 0c3e
000002d0: f8d4 9b3d fcf4 143e c841 ce3d 22d9 0dbd
000002e0: ef0c 043e 0ea1 abbd 38ed 62bd deba f3bd
000002f0: fe0b e13d c28a 133e 33f5 103e 9261 173d
00000300: 5adc 9eba 23b3 d53d b5fe 35bd df47 f7bd
00000310: 1268 e63c eca7 a1bd 8bd5 493c 7ff3 003e
00000320: 1f92 e3bd adce 5abd cb83 2a3d 277b 1dbe
00000330: 038e 83bd 869d aa3c 98df 84bd 4ec7 f33d
00000340: a985 cd3d 96ef 0fbe e67b bcbd 3bfc 1cbe
00000350: c00e be3c 9b0f 063e 5451 b43d dc35 0bbe
00000360: 5e94 b2bb f0c9 92bd 55d7 b13d 16c5 b9bd
00000370: be49 2c3e d58d 5ebb ecaf 16be 6477 923d
00000380: ad45 dcbd cf7d 193e 355b a8bc 9b30 11be
00000390: 1145 0a3e 9cb8 263e 6172 ac3d 9e86 1cb9
000003a0: 143f 8f3c 9490 e63c b252 0fbd b0a6 1dbe
000003b0: 57f2 27be f1ff 37be 407e debc c32f 1a3e
000003c0: 1a00 25bd 8fa7 44bd 88c3 923d d703 3cbe
000003d0: c3f1 703d f1b4 04bc 2a85 473d 7adc d3bd
000003e0: 1e7d f83d 4497 1b3e f963 ce3d aee6 3cbe
000003f0: 7ed1 463e 52b6 373d a743 b7bd efde ab3d

inc.double_conv.1.weight f4 [64]
0.9892774 0.9862011 0.9923753 0.98702896 0.98475784 1.018147 1.0064644 0.9999626
1.0106238 1.0071685 0.99310595 1.0254705 1.0035417 0.9645478 1.0042944 1.0070215
1.0046335 0.9989275 0.9908445 0.96972513 1.0064142 1.0018934 1.0134485 0.9882895
0.99727136 0.99127394 1.0151834 0.98270994 1.0378859 1.0124729 0.97483927 0.9859094
0.9942809 1.0213298 1.0125147 0.9857166 1.004581 1.0346171 0.98310876 1.0095346
1.0251249 1.0125513 0.9889318 0.9874731 1.0051531 1.005298 1.0068803 1.0024819
0.9938268 0.99437374 1.0003692 0.9857679 1.0305713 1.0077544 1.0001196 1.007799
1.0078522 0.99291676 1.002323 0.997711 0.9742637 0.99515295 1.0179402 1.0012805
00000000: 4941 7d3f ad77 7c3f 4f0c 7e3f eead 7c3f
00000010: 1719 7c3f a452 823f d3d3 803f 8dfd 7f3f
00000020: 1f5c 813f e6ea 803f 313c 7e3f 9e42 833f
00000030: 0e74 803f 9bec 763f b88c 803f 15e6 803f
00000040: d597 803f b6b9 7f3f fca7 7d3f e83f 783f
00000050: 2ed2 803f 0b3e 803f aeb8 813f 8a00 7d3f
00000060: 2d4d 7f3f 21c4 7d3f 88f1 813f e192 7b3f
00000070: 72d9 843f b698 813f 118f 793f 8f64 7c3f
00000080: 3189 7e3f efba 823f 159a 813f ec57 7c3f
00000090: 1c96 803f 556e 843f 04ad 7b3f 6e38 813f
000000a0: 4b37 833f 489b 813f a22a 7d3f 09cb 7c3f
000000b0: dba8 803f 9bad 803f 74e1 803f 5451 803f
000000c0: 6f6b 7e3f 478f 7e3f 190c 803f 495b 7c3f
000000d0: c3e9 833f 19fe 803f eb03 803f 8fff 803f
000000e0: 4d01 813f cb2f 7e3f 1f4c 803f fd69 7f3f
000000f0: 5969 793f 58c2 7e3f dd4b 823f f629 803f

inc.double_conv.1.bias f4 [64]
-0.013395706 -0.0044520996 -0.011061967 -0.0022897364 -0.008181785 -0.0123179285 0.01694557 0.028014902
-0.0089054825 0.002210905 0.028540885 -0.038307484 0.0008534836 -0.024016192 0.0004141175 0.0017218526
-0.0078801075 -0.018826688 -0.027851764 -0.009083344 -0.0008483467 -0.0017995381 0.009858924 -0.020362075
4.873225e-05 -0.0110520385 -0.014680423 -0.015460989 -0.012599704 0.008309974 -0.030340644 -0.008598937
-0.010556271 -0.019293113 0.007933433 -0.018520141 0.023246538 0.010694889 -0.018054098 0.019622713
-0.008738761 0.01075976 -0.016004879 -0.042939022 -0.009185844 0.0051247627 -9.11958e-05 -0.009624427
-0.0010346837 -0.0048110555 -0.0075936196 -0.018561946 0.026707474 -0.0134314895 -0.00028202738 0.008987445
-0.012168726 -0.003226538 0.011446195 0.02697123 -0.015145378 0.026048763 -0.024205467 0.0073992503
00000000: aa79 5bbc ebe2 91bb 413d 35bc 670f 16bb
00000010: e50c 06bc 23d1 49bc 70d1 8a3c 827f e53c
00000020: 4de8 11bc d5e4 103b 93ce e93c 4fe8 1cbd
00000030: 51bc 5f3a 9bbd c4bc e91d d939 c9af e13a
00000040: 911b 01bc 6d3a 9abc 6229 e4bc 4ed2 14bc
00000050: 9563 5eba 7bde ebba 5387 213c 5ece a6bc
00000060: db65 4c38 9c13 35bc 2886 70bc 1750 7dbc
00000070: fd6e 4ebc 8f26 083c f18c f8bc 8ee2 0cbc
00000080: 36f4 2cbc 970c 9ebc 3bfb 013c 8db7 97bc
00000090: 866f be3c 9e39 2f3c 30e6 93bc d0bf a03c
000000a0: 052d 0fbc b449 303c aa1c 83bc d4e0 2fbd
000000b0: 3980 16bc a0ed a73b 5f40 bfb8 c6af 1dbc
000000c0: 399e 87ba 0fa6 9dbb e6d3 f8bb 390f 98bc
000000d0: a2c9 da3c c00f 5cbc 13dd 93b9 1440 133c
000000e0: 565f 47bc 5374 53bb d288 3b3c c5f2 dc3c
000000f0: 5224 78bc 3764 d53c 8b4a c6bc 6975 f23b

inc.double_conv.1.running_mean f4 [64]
0.624738 -0.6961248 -0.34114206 -0.1840351 0.050683387 0.09397608 0.84715253 -0.060377058
-0.05911637 0.52250046 -0.0499863 -0.008525256 0.40695775 -0.85199505 0.7001415 0.25604957
0.43591186 0.45983928 -0.0041034687 -0.9716462 0.15618697 -0.23114778 -0.073343895 -0.23966816
-0.83610183 -0.45756182 0.14436208 -0.32467973 0.14564438 -0.048441958 -1.1205258 -0.62069684
-0.09125803 0.089682244 0.1331847 -0.01163766 -0.0055202655 0.09663444 -1.1328237 0.013975441
-0.07101625 0.25723204 -0.40809542 -0.55913407 0.18242513 -0.04878597 -0.008100846 0.0131879775
-0.46679094 0.4868959 0.2172693 -0.26244986 -0.08611141 0.06622691 -0.17479245 -0.01798756
-0.041176394 -0.15591452 -0.0030322834 -0.009589219 -0.55906385 -0.084253944 -0.09450126 0.60716236
00000000: d4ee 1f3f 3c35 32bf 2caa aebe b273 3cbe
00000010: 6299 4f3d 8876 c03d fdde 583f ef4d 77bd
00000020: 0224 72bd 97c2 053f 6fbe 4cbd 84ad 0bbc
00000030: c45c d03e 591c 5abf 793c 333f ee18 833e
00000040: d72f df3e 0e70 eb3e 6476 86bb cebd 78bf
00000050: 7aef 1f3e 01b2 6cbe 5335 96bd 926b 75be
00000060: c50a 56bf 8b45 eabe a7d3 133e 6c3c a6be
00000070: cd23 153e 136b 46bd 646d 8fbf fde5 1ebf
00000080: 7de5 babd 53ab b73d 9261 083e e2ab 3ebc
00000090: 58e3 b4bb 47e8 c53d 5e00 91bf 40f9 643c
000000a0: f870 91bd ebb3 833e e2f1 d0be 6923 0fbf
000000b0: a7cd 3a3e ccd3 47bd 69b9 04bc 6312 583c
000000c0: 39ff eebe 6b4a f93e d87b 5e3e d45f 86be
000000d0: 2e5b b0bd f9a1 873d cbfc 32be a65a 93bc
000000e0: 94a8 28bd 0ea8 1fbe 46b9 46bb 191c 1dbc
000000f0: cf1e 0fbf 558d acbd e089 c1bd fe6e 1b3f

inc.double_conv.1.running_var f4 [64]
0.040295325 0.043637436 0.021642836 0.009147634 0.0047496776 0.0033388094 0.07966875 0.017264837
0.006194153 0.03175485 0.006654853 0.005543911 0.014613692 0.062343743 0.057946693 0.013734336
0.019173209 0.024046177 0.0006365502 0.08390584 0.009667458 0.03459333 0.0053542154 0.011309551
0.081150085 0.03570223 0.011596719 0.017250236 0.008513056 0.01451561 0.1034554 0.041711044
0.0063083963 0.0026931763 0.011253028 0.0013877234 0.008697318 0.0075790742 0.10965388 0.02162057
0.022272376 0.017408999 0.027003529 0.027387464 0.007262365 0.027288256 0.007532091 0.0032662526
0.024194341 0.02167647 0.0079337265 0.013357074 0.0054219025 0.002467518 0.0073877713 0.0072377543
0.005898008 0.0091287885 0.0074122306 0.0024573405 0.027214013 0.012268135 0.01177969 0.03560748
00000000: b60c 253d 2bbd 323d 514c b13c f5df 153c
00000010: 2fa3 9b3b edcf 5a3b 5f29 a33d fd6e 8d3c
00000020: 52f8 ca3b 6011 023d f410 da3b b2a9 b53b
00000030: 446e 6f3c 275c 7f3d 8359 6d3d fb05 613c
00000040: 2211 9d3c 7dfc c43c 29de 263a d3d6 ab3d
00000050: 4264 1e3c bcb1 0d3d 6a72 af3b b24b 393c
00000060: 0432 a63d 803c 123d 2a00 3e3c 5e50 8d3c
00000070: 587a 0b3c e2d2 6d3c 6de0 d33d 33d9 2a3d
00000080: aab6 ce3b 0080 303b 9f5e 383c 45e4 b53a
00000090: 327f 0e3c e259 f83b 3792 e03d 9f1d b13c
000000a0: 8f74 b63c 519d 8e3c 8136 dd3c ad5b e03c
000000b0: 22f9 ed3b 9f8b df3c c2cf f63b a00e 563b
000000c0: 3633 c63c da92 b13c 76fc 013c a1d7 5a3c
000000d0: 37aa b13b 15b6 213b 1e15 f23b af2a ed3b
000000e0: 1444 c13b ea90 153c 4ce2 f23b 550b 213b
000000f0: ecef de3c 4a00 493c 9aff 403c 26d9 113d

down1.maxpool_conv.0.double_conv.0.weight f4 [128, 64, 3, 3]
-0.048875865 -0.02154566 -0.040715568 0.025635503 0.04134231 -0.011589214 0.024646629 0.008449364
0.036556985 0.037811656 -0.0059454427 -0.030285256 0.010377947 0.030547138 0.018474422 -0.008047168
0.01667466 0.01275176 -0.014623842 0.03707871 0.018309144 0.005222077 -0.015947381 0.0041351756
-0.024757784 0.0026602664 0.023426961 -0.017280791 0.036196753 -0.023527095 0.0148942135 -0.0130015705
-0.033617772 -0.007566391 0.0031337526 0.013676171 0.0025890365 0.026870407 0.037978344 0.013284393
0.001090797 -0.031139636 -0.017618258 -0.025750505 0.0069133877 -0.004356351 0.0009804845 -0.020547591
-0.026671208 -0.02256431 -0.017071754 -0.018327031 0.018355075 -0.017845213 0.00834845 0.012160851
-0.04731772 -0.04369465 0.0336547 -0.026785389 0.014565281 -0.023359478 -0.035368875 0.032548506
-0.031745683 0.020484077 0.00010822252 -0.013704326 0.029772418 -0.0099210935 -0.0038081724 0.026648527
-0.042107 -0.0036518439 -0.012923079 -0.022061132 0.010125533 -0.0040641814 0.014359226 0.009069706
-0.012559743 -0.046565134 0.020907534 0.014792019 0.00097319676 -0.031262375 -0.024707293 0.018898368
-0.039552163 -0.010836546 -0.034304265 -0.007401744 0.031015899 0.027622925 0.030111007 -0.02052041
-0.013986672 0.0055944724 -0.036527105 -0.018112797 0.0018215879 -0.0064145615 -0.029981108 0.01770114
-0.018875336 -0.040348224 -0.00208791 -0.004799087 -0.038064875 0.0297072 -0.010498218 -0.0104773315
0.006411789 0.02908686 0.026442878 0.01718727 0.022465471 -0.017040515 -0.012026362 0.04185283
0.023968404 0.02150627 -0.0043064314 0.037876837 -0.00463857 0.017368918 -0.0016671051 0.027813863
-0.043282684 -0.006246717 -0.01654169 0.017784867 0.04201097 0.021510623 -0.013173102 0.0048632217
0.023353677 0.035050616 -0.031584684 -0.0057706703 0.0071506617 -0.015524617 -0.026787488 -0.013729968
-0.042343684 -0.020208053 -0.02316114 -0.045609392 -0.025836896 -0.005441363 0.041172665 0.0038616594
-0.029887708 -0.019386547 -0.029108286 0.028000118 0.01809937 0.023048256 0.002309954 -0.015687244
-0.035073534 -0.012475098 0.017059684 0.006366292 -0.045963995 -0.049596973 -0.0016670828 -0.018344859
0.0019471738 0.04010968 0.036041196 -0.025882753 0.018847322 -0.025669692 0.0010497294 -0.027054537
-0.023167446 -0.035272863 -0.04106155 0.01560037 -0.00957004 -0.02884096 -0.010764765 0.012990444
0.011152686 -0.004533912 -0.0037181221 0.004612213 -0.037054174 0.040427793 0.036891986 0.02379637
0.03699367 -0.0076461206 0.021787515 -0.029494274 -0.027975176 0.021305788 -0.0063849897 -0.035093255
-0.014718173 0.034626722 -0.012382018 -0.0124562 0.011058067 0.030336441 -0.015771793 -0.025257675
0.025643528 -0.03257501 -0.013543771 -0.0341418 0.034426857 -0.028367184 0.010606967 -0.027916444
-0.039102204 0.030663786 0.025766166 -0.011455283 -0.0030815764 0.014501797 0.0125387795 0.015202308
-0.00039030192 -0.023393264 0.037362665 -0.034066968 0.012816225 0.017061574 0.014855929 -0.03046608
0.02568163 0.016420957 -0.0048915837 -0.010976223 -0.026595706 -0.037342235 -0.0048428015 0.031605106
0.017914556 0.017118864 0.03585566 0.012782736 0.02290611 -0.011454605 0.03991845 -0.010056626
0.037795346 0.034074597 -0.0069119004 0.021620885 0.023423241 -0.005235609 -0.008048316 -0.025976287
00000000: 0f32 48bd 8680 b0bc 5ec5 26bd 8c01 d23c
00000010: 8e56 293d b0e0 3dbc bae7 c93c 346f 0a3c
00000020: c7bc 153d 65e0 1a3d fdd1 c2bb c918 f8bc
00000030: 4408 2a3c fe3d fa3c ac57 973c 45d8 03bc
00000040: 4c99 883c c2ec 503c d798 6fbc d8df 173d
00000050: 0ffd 953c f51d ab3b 15a4 82bc 5e80 873b
00000060: d6d0 cabc dd57 2e3b e6e9 bf3c 7290 8dbc
00000070: 0c43 143d e5bb c0bc dc06 743c 8a04 55bc
00000080: cab2 09bd 7def f7bb a55f 4d3b 0512 603c
00000090: d3ac 293b 541f dc3c 2e8f 1b3d c8a6 593c
000000a0: 13f9 8e3a 8d18 ffbc 2a54 90bc b9f2 d2bc
000000b0: b389 e23b b9bf 8ebb 9a83 803a 6c53 a8bc
000000c0: 947d dabc cad8 b8bc 10da 8bbc 9222 96bc
000000d0: 625d 963c 2030 92bc f0c7 083c 4e3e 473c
000000e0: 3ad0 41bd 29f9 32bd 83d9 093d 086d dbbc
000000f0: 37a3 6e3c 605c bfbc f4de 10bd 9551 053d
00000100: c307 02bd 39ce a73c 86f5 e238 1c88 60bc
00000110: 49e5 f33c 158c 22bc 8892 79bb 034e da3c
00000120: 6478 2cbd c653 6fbb 52bb 53bc 8cb9 b4bc
00000130: 90e5 253c d32c 85bb f642 6b3c 1b99 143c
00000140: 61c7 4dbc 15bb 3ebd 4746 ab3c 395a 723c
00000150: 211e 7f3a fa0c 00bd f366 cabc c0d0 9a3c
00000160: 7301 22bd c58b 31bc a182 0cbd 548a f2bb
00000170: 0e15 fe3c 7949 e23c 5cab f63c 6b1a a8bc
00000180: 5b28 65bc d651 b73b 729d 15bd 4a61 94bc
00000190: 59c2 ee3a 3e31 d2bb f19a f5bc fb01 913c
000001a0: 73a0 9abc 2e44 25bd 51d5 08bb a941 9dbb
000001b0: eae9 1bbd 845c f33c b800 2cbc 1da9 2bbc
000001c0: fc19 d23b 9147 ee3c bc9e d83c 51cc 8c3c
000001d0: 8209 b83c 8d98 8bbc 380a 45bc e06d 2b3d
000001e0: 6359 c43c eb2d b03c f71c 8dbb be24 1b3d
000001f0: 25ff 97bb 4349 8e3c c482 daba e6d9 e33c
00000200: 2f49 31bd 43b1 ccbb 7082 87bc 92b1 913c
00000210: b213 2c3d 0c37 b03c ffd3 57bc a95b 9f3b
00000220: 3650 bf3c 3c91 0f3d f15e 01bd e417 bdbb
00000230: 1950 ea3b f75a 7ebc 6f71 dbbc a9f3 60bc
00000240: 9270 2dbd 5c8b a5bc 6ebc bdbc ead0 3abd
00000250: e6a7 d3bc 764d b2bb aba4 283d e513 7d3b
00000260: 11d7 f4bc 89d0 9ebc 8074 eebc 8160 e53c
00000270: 2145 943c b2cf bc3c 9962 173b 8982 80bc
00000280: 44a9 0fbd 5a64 4cbc c0c0 8b3c 549c d03b
00000290: be44 3cbd 3226 4bbd 0482 daba f547 96bc
000002a0: 5038 ff3a 0c4a 243d ef9f 133d 1108 d4bc
000002b0: b365 9a3c 3f49 d2bc 1397 893a 7aa1 ddbc
000002c0: a8c9 bdbc 477a 10bd 2830 28bd b298 7f3c
000002d0: a8cb 1cbc e043 ecbc b25e 30bc dfd5 543c
000002e0: c1b9 363c 3691 94bb bdab 73bb 0c22 973b
000002f0: 1ec6 17bd 9d97 253d 0d1c 173d 9bf0 c23c
00000300: ad86 173d 4f8c fabb bb7b b23c fa9d f1bc
00000310: 322c e5bc 7a89 ae3c 2d39 d1bb f2bd 0fbd
00000320: 7e24 71bc c0d4 0d3d f3dd 4abc 1715 4cbc
00000330: e52c 353c 2184 f83c d933 81bc 2fe9 cebc
00000340: 6012 d23c 606d 05bd b1e6 5dbc 46d8 0bbd
00000350: 2d03 0d3d 4c62 e8bc d8c8 2d3c 07b1 e4bc
00000360: a229 20bd 9f32 fb3c 9113 d33c f0ae 3bbc
00000370: 46f4 49bb f298 6d3c 746f 4d3c 1a13 793c
00000380: 70a1 ccb9 3ba3 bfbc 9809 193d ce89 0bbd
00000390: 25fb 513c b7c4 8b3c 4866 733c 0094 f9bc
000003a0: 4862 d23c 3e85 863c 9449 a0bb 9ed5 33bc
000003b0: 3ddf d9bc 2cf4 18bd 5db0 9ebb 5b74 013d
000003c0: 8cc1 923c dc3c 8c3c 62dd 123d ae6e 513c
000003d0: 98a5 bb3c 18ac 3bbc 8781 233d 8cc4 24bc
000003e0: 4bcf 1a3d ce91 0b3d 397d e2bb 481e b13c
000003f0: 19e2 bf3c 798f abbb 16dd 03bc 39cc d4bc

down1.maxpool_conv.0.double_conv.1.weight f4 [128]
1.0100173 0.99010444 1.0014994 0.9904302 0.99648535 0.9988574 1.003457 1.002351
1.0010395 0.99616635 0.99013144 0.9989858 0.98544097 0.9982055 0.98967826 0.98999155
1.0021981 0.998442 0.98926526 0.99840313 0.99922913 0.99995035 0.9956312 0.99951667
1.0079516 0.98527783 1.0080051 0.99394345 1.0053962 0.9840665 0.9993652 0.987057
1.014724 0.99276066 0.9924627 0.98396474 1.0035089 1.0073065 0.98390394 1.0069858
1.0096302 1.0162996 0.9808751 1.005991 1.0062801 1.0078143 1.0095447 1.0032037
1.0157489 1.0157014 1.0151787 1.0025206 0.9997926 0.9933692 1.0012894 0.9982733
1.0073967 0.9901818 1.0154755 0.9955822 0.99305016 1.0221939 1.009228 1.0009606
1.0054088 1.0034741 0.9956483 0.9789941 0.9961952 0.988343 0.99621516 1.0125785
0.9887979 0.999465 0.997232 1.0055889 0.9925442 1.0045317 1.0270875 0.9880328
1.0068586 1.0014144 1.0066029 1.0161566 1.0019081 0.99530125 0.9961684 0.99305147
1.0036411 1.0101581 0.9914979 0.99027 1.0028663 1.0055686 1.0169991 1.0060887
1.0008073 0.98189706 0.98242927 1.0131688 1.0006431 0.9795109 0.99391586 1.005835
0.9986737 1.0070456 1.0129791 0.9968235 0.9836753 1.0034014 1.0035934 0.99579555
0.9717371 0.99250215 1.0034535 1.0002532 1.009936 0.99364483 1.0085975 1.0160552
1.0078313 0.9931574 0.99357396 0.998443 0.98508066 0.9926356 1.0056151 0.9969251
00000000: 3f48 813f 7c77 7d3f 2231 803f d58c 7d3f
00000010: aa19 7f3f 1eb5 7f3f 4771 803f 0a4d 803f
00000020: 1022 803f c204 7f3f 4179 7d3f 89bd 7f3f
00000030: dc45 7c3f 658a 7f3f 8e5b 7d3f 1670 7d3f
00000040: 0748 803f e599 7f3f 7d40 7d3f 5997 7f3f
00000050: 7bcd 7f3f bffc 7f3f b0e1 7e3f 53e0 7f3f
00000060: 8f04 813f 2b3b 7c3f 5006 813f 1473 7e3f
00000070: d3b0 803f c8eb 7b3f 66d6 7f3f c4af 7c3f
00000080: 7ae2 813f 9025 7e3f 0912 7e3f 1de5 7b3f
00000090: fb72 803f 6bef 803f 21e1 7b3f e9e4 803f
000000a0: 903b 813f 1b16 823f a11a 7b3f 50c4 803f
000000b0: c9cd 803f 0f00 813f c338 813f fb68 803f
000000c0: 0f04 823f 8102 823f 60f1 813f 9852 803f
000000d0: 68f2 7f3f 724d 7e3f 402a 803f d78e 7f3f
000000e0: 60f2 803f 8e7c 7d3f 1afb 813f 7ade 7e3f
000000f0: 8938 7e3f 40d7 823f 622e 813f 7a1f 803f
00000100: 3cb1 803f d771 803f cfe2 7e3f 5b9f 7a3f
00000110: a606 7f3f 0c04 7d3f f507 7f3f 2c9c 813f
00000120: dc21 7d3f f0dc 7f3f 994a 7f3f 23b7 803f
00000130: 6017 7e3f 7f94 803f 9a77 833f b8ef 7c3f
00000140: bee0 803f 592e 803f 5dd8 803f 6b11 823f
00000150: 863e 803f 10cc 7e3f e404 7f3f 9f38 7e3f
00000160: 5077 803f dc4c 813f ced2 7d3f 5682 7d3f
00000170: ec5d 803f 79b6 803f 072d 823f 84c7 803f
00000180: 741a 803f 9b5d 7b3f 7c80 7b3f 84af 813f
00000190: 1315 803f 3ac1 7a3f 4571 7e3f 34bf 803f
000001a0: 14a9 7f3f dfe6 803f 4da9 813f d32f 7f3f
000001b0: 25d2 7b3f 756f 803f c075 803f 75ec 7e3f
000001c0: c3c3 783f 9f14 7e3f 2a71 803f 4c08 803f
000001d0: 9545 813f 825f 7e3f b919 813f 190e 823f
000001e0: 9e00 813f 903f 7e3f dd5a 7e3f f699 7f3f
000001f0: 3f2e 7c3f 5e1d 7e3f ffb7 803f 7c36 7f3f

down1.maxpool_conv.0.double_conv.1.bias f4 [128]
-0.017505176 -0.01498987 -0.019189266 -0.0039488175 -0.040829066 -0.0062579936 0.0012135747 -0.00764276
-0.016451325 -0.031401977 -0.025321586 -0.014858163 -0.021096664 0.006559408 -0.021101879 -0.036382224
-0.014688806 -0.02255002 -0.023557464 -0.013067231 0.005918586 -0.011388387 -0.01161614 -0.024255304
-0.022854157 -0.024473207 -0.006986488 -0.007195868 -0.008143628 -0.016659115 -0.02935683 -0.0099212825
-0.013618969 -0.020789146 -0.01926382 -0.020940037 -0.0035883551 0.0031079524 -0.008151606 -0.0028018756
-0.016581988 -0.011116358 -0.024518143 -0.011784889 -0.016581008 -0.03309517 -0.012177587 0.0073072216
-0.009796258 -0.0044045784 -0.015395557 -0.0134581765 -0.013404985 -0.015792588 -0.015257167 -0.02972149
-0.016567392 -0.019310245 -0.031859964 -0.02154843 -0.011283955 -0.010912501 -0.016262606 -0.0131246215
-0.011871248 -0.0075936713 -0.004422026 -0.032627758 -0.0056492356 -0.012206669 -0.02336599 -0.021872561
-0.009376885 -0.014873892 -0.013754232 -0.010965528 -0.01971635 -0.008062405 -0.011969024 -0.009688742
-0.0020458356 0.0034453778 -0.003809882 -0.009769564 -0.027737174 -0.0009197363 -0.009711405 0.00450878
-0.014980351 -0.03004323 -0.015726896 0.0020478105 -0.021304594 -0.036662463 -0.029527333 -0.007429951
-0.004980058 -0.014785424 -0.031310745 -0.0046707923 -0.006474495 -0.028316103 -0.001924667 -0.0042190542
-0.003397566 -0.011044252 -0.025141146 -0.019893901 -0.035411954 0.007719592 -0.00294691 -0.0036092054
-0.031322613 -0.010294569 0.0038689561 -0.002472762 -0.0020753583 0.013541006 -0.008506944 0.014202001
-0.030949945 -0.0070017125 -0.0035193048 -0.018521508 -0.02916894 -0.012499267 0.004160489 -0.006583924
00000000: 0467 8fbc 1298 75bc cf32 9dbc 1565 81bb
00000010: 613c 27bd db0f cdbb cf10 9f3a 1e70 fabb
00000020: eec4 86bc 5c9f 00bd 376f cfbc a76f 73bc
00000030: e9d2 acbc 4df0 d63b d9dd acbc 8705 15bd
00000040: 51a9 70bc d2ba b8bc 95fb c0bc f017 56bc
00000050: b3f0 c13b 5b96 3abc 9f51 3ebc 0fb3 c6bc
00000060: a438 bbbc 097c c8bc e9ee e4bb 51cb ebbb
00000070: da6c 05bc b278 88bc bc7d f0bc e08c 22bc
00000080: 1922 5fbc 004e aabc 29cf 9dbc 718a abbc
00000090: 9c2a 6bbb caae 4b3b 508e 05bc ac9f 37bb
000000a0: f3d6 87bc 6321 36bc 46da c8bc 6815 41bc
000000b0: e5d4 87bc cd8e 07bd 8084 47bc 6b71 ef3b
000000c0: 7c80 20bc 4854 90bb a53d 7cbc af7f 5cbc
000000d0: 95a0 5bbc 755f 81bc 32f9 79bc 7b7a f3bc
000000e0: 57b8 87bc 8530 9ebc 987f 02bd 5586 b0bc
000000f0: 56e0 38bc 59ca 32bc 2839 85bc a708 57bc
00000100: 9f7f 42bc 55d4 f8bb a5e6 90bb afa4 05bd
00000110: 391d b9bb 7bfe 47bc 086a bfbc 162e b3bc
00000120: 82a1 19bc a0b1 73bc 6e59 61bc c2a8 33bc
00000130: 2f84 a1bc 2d18 04bc ba19 44bc 88bd 1ebc
00000140: 6d13 06bb d9cb 613b 37af 79bb 8510 20bc
00000150: 1239 e3bc 751a 71ba 961c 1fbc 63be 933b
00000160: 2570 75bc 381d f6bc b1d5 80bc 8f34 063b
00000170: f986 aebc 612b 16bd 4ee3 f1bc f276 f3bb
00000180: c12f a3bb 903e 72bc b23f 00bd 720d 99bb
00000190: 0028 d4bb 2cf7 e7bc 1c45 fcba fe3f 8abb
000001a0: b3a9 5ebb f3f2 34bc cef4 cdbc 89f8 a2bc
000001b0: 200c 11bd a2f4 fc3b f220 41bb 6b88 6cbb
000001c0: 244c 00bd 8daa 28bc 508e 7d3b 100e 22bb
000001d0: bc02 08bb 18db 5d3c b660 0bbc 82af 683c
000001e0: bd8a fdbc 9f6e e5bb 23a4 66bb 6bba 97bc
000001f0: b3f3 eebc bac9 4cbc b654 883b f5bd d7bb

down1.maxpool_conv.0.double_conv.1.running_mean f4 [128]
-0.11091233 0.25568515 -0.29450595 -0.20910676 0.17057261 -0.06522078 -0.48329815 -0.31989446
-0.3444728 0.4618964 -0.5298228 -0.54732645 -0.36612982 0.5117078 -0.40172476 0.869755
-0.07184675 0.16077022 -0.72432005 0.36912242 0.29660273 -0.20991884 0.30517888 0.5591754
0.19788237 -0.10424763 0.09806912 -0.31236586 0.546986 0.02451677 0.061841536 0.09340739
-0.34037846 -0.6632864 -0.18152982 -0.6902541 -0.16400099 -0.8371771 0.55891764 -0.6182199
0.13804035 -0.36091876 -0.28474578 -0.34113705 0.18273869 -0.43696296 -0.28885037 -0.7976141
-0.44868726 -0.60265094 -0.65027565 -0.4988715 -0.03919558 -0.028138913 0.8893791 0.013315779
0.08899306 0.21053523 -0.4026588 0.2130097 -0.6619857 -0.47926673 -0.56418616 0.08541058
-0.12699145 -0.04696 -0.6688482 -0.22645994 -0.7126862 0.15762062 -0.13249639 -0.29236978
0.11234991 0.011973599 0.35576266 -0.3823603 0.3299339 -0.4377884 -0.21210441 0.46356252
-0.1540206 0.23338383 -0.3015857 -0.5641699 -0.6480373 -0.09400487 0.6118649 -0.2254556
-0.2545675 -0.35953808 0.43951935 0.18919514 -0.05993095 -0.01750633 -0.52450484 -0.34095693
0.12974843 -0.14196832 0.78351617 -0.35007632 -0.52765083 0.3075053 -0.25511366 -0.2282072
-0.23242058 -0.59184784 -0.23196493 0.009113271 0.17871821 -0.48111737 -0.64912146 0.17228726
0.30587873 0.3336835 0.059267797 0.27454978 -0.37695867 -0.04667042 -0.30375722 -0.18962951
-0.3018468 -0.017485559 0.39331678 -0.49090046 -0.10135163 -0.51034886 -0.34464368 -0.5085839
00000000: 0126 e3bd 2ae9 823e 7cc9 96be 1520 56be
00000010: 96aa 2e3e 7992 85bd db72 f7be 35c9 a3be
00000020: bd5e b0be af7d ec3e 78a2 07bf 961d 0cbf
00000030: 5e75 bbbe 48ff 023f deae cdbe 44a8 5e3f
00000040: 6424 93bd f3a0 243e 0a6d 39bf 9dfd bc3e
00000050: 50dc 973e f7f4 56be 6840 9c3e 1e26 0f3f
00000060: ada1 4a3e c87f d5bd 76d8 c83d 6bee 9fbe
00000070: 4607 0c3f 65d7 c83c 8d4d 7d3d 604c bf3d
00000080: 1646 aebe 23cd 29bf f4e2 39be 7eb4 30bf
00000090: e0ef 27be 3d51 56bf 3a15 0f3f a943 1ebf
000000a0: 735a 0d3e 58ca b8be 33ca 91be 84a9 aebe
000000b0: da1f 3b3e 9cb9 dfbe 32e4 93be 7030 4cbf
000000c0: 56ba e5be 5547 1abf 7778 26bf 166c ffbe
000000d0: 8b8b 20bd 9483 e6bc 59ae 633f 6d2a 5a3c
000000e0: fe41 b63d 8c96 573e 4b29 cebe 371f 5a3e
000000f0: e577 29bf 7362 f5be 816e 10bf beeb ae3d
00000100: 0c0a 02be 2159 40bd a339 2bbf 1de5 67be
00000110: 9a72 36bf 4d67 213e 22ad 07be 7eb1 95be
00000120: b617 e63d ea2c 443c 8626 b63e bbc4 c3be
00000130: 19ed a83e cd25 e0be e631 59be 1158 ed3e
00000140: 93b7 1dbe 2cfc 6e3e 7169 9abe 706d 10bf
00000150: c6e5 25bf a085 c0bd 2ea3 1c3f d5dd 66be
00000160: ac56 82be 6015 b8be ae08 e13e 5fbc 413e
00000170: 287a 75bd 6f69 8fbc f345 06bf e891 aebe
00000180: c6dc 043e 2560 11be 8494 483f 343d b3be
00000190: 2014 07bf 5671 9d3e 429e 82be 26af 69be
000001a0: a9ff 6dbe 5783 17bf 3788 6dbe d44f 153c
000001b0: e801 373e 0455 f6be d32c 26bf 126c 303e
000001c0: 239c 9c3e 90d8 aa3e cac2 723d ca91 8c3e
000001d0: ba00 c1be 7b29 3fbd 1186 9bbe 3d2e 42be
000001e0: aa8b 9abe e03d 8fbc d160 c93e 4e57 fbbe
000001f0: 7291 cfbd 39a6 02bf 2375 b0be 8e32 02bf

down1.maxpool_conv.0.double_conv.1.running_var f4 [128]
0.12384944 0.24107136 0.19129641 0.24228877 0.10826984 0.2603971 0.16216974 0.19657074
0.16549112 0.16600464 0.24271274 0.42254448 0.14935528 0.30337152 0.18073642 0.23339231
0.28741166 0.23936097 0.2587076 0.14076251 0.21583794 0.11966123 0.13667534 0.13353668
0.18025474 0.12039457 0.13967644 0.15586783 0.24934037 0.19734177 0.2009001 0.24512689
0.1507904 0.11365369 0.11856206 0.17078055 0.231553 0.326392 0.23295437 0.25920993
0.16168942 0.20804885 0.36421195 0.14561771 0.1235924 0.18765084 0.17240924 0.34961355
0.26020098 0.3727586 0.2861094 0.18254927 0.20978916 0.093106784 0.24386533 0.29172823
0.14240278 0.1613029 0.26090556 0.13873544 0.6788101 0.0849276 0.30386314 0.1448148
0.091444604 0.08435411 0.64273673 0.24191524 0.17461067 0.1902643 0.21336971 0.15770221
0.37960517 0.2382819 0.2222868 0.20045592 0.17892806 0.22664669 0.0655289 0.15692669
0.16955912 0.31906942 0.19291885 0.32271484 0.29414946 0.13120799 0.35570478 0.78165007
0.09214807 0.20039289 0.1527868 0.2160025 0.13858475 0.1601183 0.26336578 0.09551482
0.13147907 0.1742385 0.2717065 0.19971116 0.34165236 0.23397239 0.1487398 0.17302096
0.13312016 0.22092319 0.16807391 0.16249393 0.18098506 0.27827543 0.10220268 0.13827151
0.17381428 0.33189216 0.27614126 0.20710745 0.29908514 0.23932841 0.24614675 0.39513338
0.27148917 0.0874414 0.24663417 0.13375711 0.1364716 0.20131291 0.20689142 0.38966146
00000000: c6a4 fd3d 69db 763e 35e3 433e 8c1a 783e
00000010: 94bc dd3d c552 853e d30f 263e d749 493e
00000020: 8176 293e 1ffd 293e b089 783e c057 d83e
00000030: 97f0 183e 8353 9b3e f812 393e 65fe 6e3e
00000040: 9f27 933e 0b1b 753e 5375 843e 0c24 103e
00000050: 9f04 5d3e f210 f53d 9ff4 0b3e d7bd 083e
00000060: b394 383e 6e91 f63d 5707 0f3e d19b 1f3e
00000070: 1553 7f3e f613 4a3e c1b8 4d3e 8b02 7b3e
00000080: cc68 1a3e 44c3 e83d aad0 f23d 19e1 2e3e
00000090: 3b1c 6d3e da1c a73e 978b 6e3e 2ab7 843e
000000a0: e991 253e c20a 553e fd79 ba3e cf1c 153e
000000b0: 031e fd3d 8b27 403e 0c8c 303e 8c00 b33e
000000c0: 1039 853e 37da be3e ee7c 923e 32ee 3a3e
000000d0: f8d2 563e c5ae be3d d5b7 793e 675d 953e
000000e0: 09d2 113e 962c 253e 6a95 853e aa10 0e3e
000000f0: 80c6 2d3f 86ee ad3d f393 9b3e 554a 143e
00000100: 4f47 bb3d d9c1 ac3d 658a 243f a1b8 773e
00000110: 24cd 323e a5d4 423e 977d 5a3e b07c 213e
00000120: 9c5b c23e 2c00 743e 279f 633e 5144 4d3e
00000130: eb38 373e 1216 683e 0434 863d 64b1 203e
00000140: e8a0 2d3e 115d a33e 858c 453e e13a a53e
00000150: c29a 963e 635b 063e f01e b63e 381a 483f
00000160: 21b8 bc3d cb33 4d3e 2574 1c3e c22f 5d3e
00000170: 29e9 0d3e 0df6 233e e1d7 863e 469d c33d
00000180: 73a2 063e 946b 323e 1d1d 8b3e 1581 4c3e
00000190: 0fed ae3e 7596 6f3e 3f4f 183e 682c 313e
000001a0: a750 083e b039 623e 911b 2c3e cf64 263e
000001b0: 2654 393e 1e7a 8e3e a44f d13d 0c97 0d3e
000001c0: 5ffc 313e c5ed a93e 6362 8d3e fa13 543e
000001d0: b021 993e 8212 753e e50d 7c3e ec4e ca3e
000001e0: a100 8b3e 7a14 b33d ab8d 7c3e a0f7 083e
000001f0: 36bf 0b3e f924 4e3e 58db 533e b581 c73e

down4.double_conv.0.weight f4 [64, 128, 3, 3]
0.011459636 -0.012906851 -0.0035061934 -0.001564303 0.002190492 -0.004293842 0.0027255192 0.0073424745
0.011134862 0.01811716 -0.0063617 0.018188598 0.0025048256 0.0050333333 0.019246317 0.007193282
-0.021196896 0.031867523 0.019745717 0.001986452 0.03004405 0.01008734 0.012898073 0.0012700196
-0.015511997 -0.016452294 0.013255786 0.037471216 -0.006965621 0.02952321 -0.011514597 0.002376641
0.004067237 0.010874194 0.010873734 -0.024151545 -0.041415695 -0.0055370904 -0.0099214995 -0.013479465
-0.006805349 -0.02983508 -0.0015645568 -0.020021223 0.012687592 -0.020511508 0.023520535 -0.029395714
0.017121697 -0.006053328 -0.0018687731 0.0046544205 -0.0033098029 0.020649215 -0.030434167 0.012781852
0.0044157924 -0.012708933 0.020233514 0.029536454 0.0005707557 -0.025236072 0.019544426 0.009003973
-0.02382739 -0.0050502317 -0.00034269082 0.015418283 -0.01850669 0.012063967 0.01311293 0.0029501412
0.026691625 0.027550431 0.010998591 0.01086711 0.02922865 -0.0004315515 -0.018984672 -0.020807743
-0.0054660593 0.02157614 -0.007982416 0.019568847 -0.0021547677 0.01134633 -0.03534285 -0.0151996715
-0.035504963 -0.025705412 -0.009950599 0.00064193655 0.018022098 -0.011223589 0.0043045883 -0.0036235182
0.0171693 0.023680229 -0.017976062 -0.026631683 0.009122826 -0.0045854244 0.030728232 0.01929241
0.01573488 0.014321719 0.018522892 -0.003937704 0.013868563 -0.023189148 0.014765853 -0.024753358
0.013079208 0.019951444 0.01606714 -0.015010332 0.008590712 0.012699586 -0.021993889 0.018332666
0.004076411 -0.017208567 0.026891893 0.013951943 0.01039053 0.014510181 -0.032719392 -0.031707466
-0.009284125 -0.03102422 -0.0003422469 -0.028439779 0.0070537818 -0.01627956 -0.0040269783 0.025395175
-0.016205808 0.020478161 -0.032662835 -0.017460722 -0.017564503 -0.012733138 -0.010633952 0.0032192057
-0.0058848043 -0.026688106 0.014986051 0.036411043 0.027072493 -0.008340349 0.032233298 0.001637548
0.0053066905 0.02541321 0.035594914 0.02823334 0.011205051 0.011882473 0.012113049 0.017591562
0.032206345 0.040452577 -0.012487518 0.000974097 0.028685762 -0.00636996 -0.017117651 0.022104416
0.007864937 -0.0056575593 -0.009707145 -0.0012664885 -0.010737362 -0.002210636 0.00665731 0.013384861
0.023407362 0.0056203785 0.009248048 -0.020424793 -0.0022382098 -0.0047743362 -0.038062476 -0.00933637
-0.0027214217 -0.0040940614 0.013428402 0.013163725 -0.00047137213 0.016084185 -0.012800393 0.029557116
-0.01351641 0.0070752706 -0.017773544 -0.009854338 0.011004865 -0.00835348 -0.0151929315 -0.009253063
0.011666582 -0.01297682 0.020404462 -0.0020140873 -0.0014217116 0.0025584423 0.0155364415 0.033968717
0.015301486 0.03921831 0.021083716 -0.02060127 0.010476788 -0.0018342456 0.014234482 -0.0172075
-0.00862651 -0.010153339 -0.0014752763 -0.015559262 -0.016290452 -0.007323142 -0.026132954 -0.004637432
-0.0037017993 -0.004047888 0.0010676604 -0.021257855 0.021975625 -0.005716546 0.020785311 0.018855771
-0.015676359 -0.008335361 0.011318637 -0.0072480747 -0.003297817 0.006800588 -0.006528799 0.016847292
0.0010989592 0.011383343 -0.004696667 -0.006649569 -0.023006916 -0.0144013 0.025384182 -0.010705651
0.011302766 0.031595156 -0.011246523 -0.012840288 0.034887813 0.004747493 -0.01135739 0.029216807
00000000: 32c1 3b3c 4277 53bc 2ac8 65bb 4c09 cdba
00000010: 5c8e 0f3b 5bb3 8cbb a09e 323b 2499 f03b
00000020: ff6e 363c 706a 943c cf75 d0bb 4100 953c
00000030: 0028 243b a9ee a43b 74aa 9d3c 9fb5 eb3b
00000040: 1da5 adbc 8587 023d c5c1 a13c 222f 023b
00000050: f11e f63c 5f45 253c 7052 533c c976 a63a
00000060: 0826 7ebc f6c6 86bc cc2e 593c 6b7b 193d
00000070: dd3f e4bb a9da f13c b8a7 3cbc 6bc1 1b3b
00000080: 7546 853b ad29 323c bf27 323c 76d9 c5bc
00000090: 81a3 29bd 7b70 b5bb c98d 22bc f9d8 5cbc
000000a0: 68ff debb b368 f4bc d111 cdba 8c03 a4bc
000000b0: 9edf 4f3c c007 a8bc 23ae c03c 48cf f0bc
000000c0: cd42 8c3c ff5a c6bb 9ff1 f4ba 1c84 983b
000000d0: 47e9 58bb 8b28 a93c 1351 f9bc f96a 513c
000000e0: 5ab2 903b 2139 50bc c1c0 a53c 6ff6 f13c
000000f0: c49e 153a e1bb cebc a21b a03c 6685 133c
00000100: a931 c3bc 6a7c a5bb 2fab b3b9 f79c 7c3c
00000110: 589b 97bc f2a7 453c 9dd7 563c 2857 413b
00000120: 65a8 da3c 71b1 e13c 6f33 343c f70b 323c
00000130: ec70 ef3c dd41 e2b9 be85 9bbc 0075 aabc
00000140: a11c b3bb 72c0 b03c aec8 02bc d94e a03c
00000150: 0137 0dbb f5e5 393c aac3 10bd 0b08 79bc
00000160: a76d 11bd 2894 d2bc d607 23bc a247 283a
00000170: 14a3 933c 25e3 37bc 810d 8d3b 8c78 6dbb
00000180: a2a6 8c3c 0afd c13c 8942 93bc b02a dabc
00000190: e877 153c 5441 96bb c6b9 fb3c 1e0b 9e3c
000001a0: 6fe6 803c a5a5 6a3c 52bd 973c db07 81bb
000001b0: f838 633c 2bf7 bdbc 7aec 713c 8ec7 cabc
000001c0: 2d4a 563c 3671 a33c 3c9f 833c e5ed 75bc
000001d0: 0fc0 0c3c ed11 503c 872c b4bc 632e 963c
000001e0: 6a93 853b fbf8 8cbc 634c dc3c b196 643c
000001f0: 0b3d 2a3c 1cbc 6d3c c504 06bd b0df 01bd
00000200: 711c 18bc 8126 febc 9a6f b3b9 8afa e8bc
00000210: 6923 e73b b65c 85bc bef4 83bb 8b09 d03c
00000220: 0bc2 84bc d1c1 a73c 77c9 05bd ca09 8fbc
00000230: 6fe3 8fbc a79e 50bc 073a 2ebc 4ff9 523b
00000240: 51d5 c0bb 04a1 dabc 0e88 753c bf23 153d
00000250: 22c7 dd3c f6a5 08bc 1007 043d fea2 d63a
00000260: bfe3 ad3b 5d2f d03c f9cb 113d 9b49 e73c
00000270: 6495 373c b4ae 423c cf75 463c 2e1c 903c
00000280: cdea 033d 9ab1 253d 7298 4cbc 8b5a 7f3a
00000290: 67fe ea3c 19bb d0bb 513a 8cbc 5214 b53c
000002a0: f0db 003c 0c63 b9bb b80a 1fbc 4d00 a6ba
000002b0: c3eb 2fbc 51e0 10bb 9025 da3b 2d4c 5b3c
000002c0: ccc0 bf3c 272b b83b 2085 173c e551 a7bc
000002d0: eeae 12bb 0972 9cbb 66e7 1bbd 93f7 18bc
000002e0: e159 32bb 7a27 86bb cd02 5c3c aaac 573c
000002f0: 7f22 f7b9 fbc2 833c bdb8 51bc c421 f23c
00000300: ef73 5dbc acd7 e73b d399 91bc 1774 21bc
00000310: c04d 343c 09dd 08bc c6eb 78bc 299a 17bc
00000320: 3125 3f3c ba9c 54bc 4227 a73c c7fe 03bb
00000330: ba58 baba 8aab 273b 8f8c 7e3c c822 0b3d
00000340: 15b3 7a3c 61a3 203d c2b7 ac3c ffc3 a8bc
00000350: d5a6 2b3c 126b f0ba bf37 693c bef6 8cbc
00000360: 3556 0dbc 315a 26bc 0f5e c1ba 46ec 7ebc
00000370: 8e73 85bc f8f6 efbb c714 d6bc 99f5 97bb
00000380: e399 72bb 25a4 84bb bdf0 8b3a f424 aebc
00000390: 3a06 b43c dd51 bbbb f545 aa3c 6b77 9a3c
000003a0: b56b 80bc 0a91 08bc ce71 393c 4281 edbb
000003b0: 3020 58bb 78d7 de3b 89ef d5bb 5503 8a3c
000003c0: f40a 903a 3381 3a3c 80e6 99bb a1e4 d9bb
000003d0: 0079 bcbc 6ef3 6bbc 7df2 cf3c c166 2fbc
000003e0: 3d2f 393c ec69 013d 5643 38bc 1260 52bc
000003f0: 86e6 0e3d dc90 9b3b 5914 3abc 1658 ef3c

down4.double_conv.1.weight f4 [64]
1.1697098 1.1491183 1.1923816 1.0338169 1.1713878 1.0396577 1.147166 1.0515633
1.1395351 1.0447968 1.1614099 1.1807387 1.1410481 1.0399642 1.0596261 1.1975149
1.0480309 1.037203 1.0514573 1.1768115 1.0381317 1.053073 1.0353279 1.0506877
1.1564223 1.0307854 1.1699802 1.154932 1.1498324 1.1655096 1.1644531 1.0456915
1.0583872 1.1867589 1.1530117 1.1463434 1.0364697 1.0370942 1.1610377 1.1473672
1.1351882 1.1951902 1.1597863 1.1573958 1.0512542 1.1387446 1.0538387 1.1948665
1.1717032 1.1632525 1.0577202 1.0411501 1.1772358 1.1752559 1.031225 1.1486766
1.0398434 1.0370027 1.055781 1.1769456 1.1759882 1.1506073 1.0403647 1.1560535
00000000: 0db9 953f 4f16 933f f69f 983f 1d54 843f
00000010: 09f0 953f 8113 853f 56d6 923f a099 863f
00000020: 49dc 913f e7bb 853f 14a9 943f 7222 973f
00000030: dd0d 923f 8c1d 853f d4a1 873f 2b48 993f
00000040: e025 863f 11c3 843f 2796 863f c2a1 963f
00000050: 80e1 843f 19cb 863f a085 843f ef7c 863f
00000060: a505 943f c7f0 833f e9c1 953f d0d4 933f
00000070: b52d 933f 6b2f 953f cd0c 953f 38d9 853f
00000080: 3b79 873f b7e7 973f e395 933f 61bb 923f
00000090: 0aab 843f 81bf 843f e29c 943f eedc 923f
000000a0: d94d 913f fefb 983f e173 943f 8c25 943f
000000b0: 7f8f 863f 62c2 913f 30e4 863f 63f1 983f
000000c0: 5ffa 953f 75e5 943f 6063 873f 6844 853f
000000d0: aaaf 963f c96e 963f 2eff 833f d607 933f
000000e0: 9719 853f 81bc 843f d523 873f 27a6 963f
000000f0: c886 963f 1a47 933f ac2a 853f 90f9 933f

down4.double_conv.1.bias f4 [64]
0.103022166 0.09755656 0.121648565 0.0032760066 0.104958706 -0.0048950464 0.076049015 -0.014971717
0.097947285 -0.01201583 0.091905646 0.10325677 0.08799614 -0.0030298068 -0.0120049855 0.12413026
-0.014871904 -0.0016779491 -0.014018318 0.10864461 0.00043424204 -0.00835834 -0.005169069 -0.010005166
0.09396498 0.00065770675 0.095319286 0.107361585 0.093920164 0.09735975 0.10028624 -0.0052913427
-0.016043736 0.11924316 0.09225297 0.0972702 0.00093427947 0.00068609446 0.09919117 0.10636869
0.10030399 0.11601005 0.115327016 0.100200966 -0.015035303 0.105135344 -0.008420523 0.11483119
0.1035955 0.11137418 -0.014517831 -0.005137873 0.124030955 0.11489571 0.006370033 0.09722553
-0.0059707374 0.0033757144 -0.0125816045 0.10634521 0.09891031 0.08115222 0.0025558614 0.09125001
00000000: 49fd d23d bccb c73d e222 f93d 45b2 563b
00000010: 97f4 d63d a066 a0bb 96bf 9b3d ef4b 75bc
00000020: 9698 c83d 0bde 44bc 0739 bc3d 4978 d33d
00000030: 5237 b43d b98f 46bb 8fb0 44bc 0138 fe3d
00000040: 49a9 73bc a1ee dbba 16ad 65bc 1181 de3d
00000050: fbaa e339 6bf1 08bc 4b61 a9bb b5ec 23bc
00000060: b670 c03d f469 2c3a c236 c33d 64e0 db3d
00000070: 3759 c03d 8c64 c73d df62 cd3d 0063 adbb
00000080: 276e 83bc c235 f43d 20ef bc3d 9935 c73d
00000090: 6fea 743a 05db 333a bd24 cb3d d4d7 d93d
000000a0: 2e6c cd3d ad96 ed3d 9230 ec3d 2a36 cd3d
000000b0: a256 76bc 3351 d73d 3cf6 09bc 9d2c eb3d
000000c0: e129 d43d 2518 e43d 32dc 6dbc 9a5b a8bb
000000d0: f103 fe3d 714e eb3d b6bb d03b 2e1e c73d
000000e0: 2da6 c3bb 173b 5d3b 1323 4ebc 84cb d93d
000000f0: 7d91 ca3d 2333 a63d 3d80 273b 49e1 ba3d

down4.double_conv.1.running_mean f4 [64]
-0.10062497 0.032919668 0.3273855 0.5639036 0.28651005 -0.28698295 0.5668191 -0.73639613
0.110774204 -0.6420479 0.29699373 0.42810354 0.29256654 0.11944564 -0.4832679 0.22660607
-0.7651971 0.39336747 -0.6355867 0.2120229 -0.3400095 -0.7674224 0.053740177 -0.74129546
0.28384194 0.695007 0.23089835 -0.20036186 0.13510486 0.076489896 0.19812186 -0.31468827
-0.41862816 0.08029105 0.09725896 0.017033951 0.030892937 0.18952829 0.3487116 -0.5304446
-0.40737996 0.25724164 -0.044353403 0.09216651 -0.56728375 -0.2831459 -0.5245498 0.42407602
0.3231773 0.23951006 -0.5907956 -0.17320532 -0.03347675 -0.05474267 -0.020377148 0.021279119
-0.015639313 0.6110242 -0.8873761 0.06701934 0.1285771 0.11125757 -0.4574097 -0.024726633
00000000: 7714 cebd c6d6 063d 129f a73e fd5b 103f
00000010: 72b1 923e 6eef 92be 0e1b 113f 7584 3cbf
00000020: 96dd e23d 405d 24bf 900f 983e 6330 db3e
00000030: 48cb 953e ea9f f43d e46e f7be 6c0b 683e
00000040: f5e3 43bf 7667 c93e cfb5 22bf 881c 593e
00000050: ba15 aebe cb75 44bf a91e 5c3d 8ac5 3dbf
00000060: bb53 913e fbeb 313f 9e70 6c3e a92b 4dbe
00000070: ee58 0a3e bca6 9c3d 75e0 4a3e d21e a1be
00000080: 6e56 d6be a26f a43d b52f c73d c98a 8b3c
00000090: 2f13 fd3c b413 423e 548a b23e 38cb 07bf
000000a0: 1b94 d0be 2db5 833e eaab 35bd ccc1 bc3d
000000b0: 8239 11bf 80f8 90be e548 06bf 7e20 d93e
000000c0: 7f77 a53e 2042 753e 613e 17bf bc5c 31be
000000d0: eb1e 09bd da39 60bd faed a6bc 8c51 ae3c
000000e0: 041e 80bc 156c 1c3f 152b 63bf 7041 893d
000000f0: b7a9 033e 02db e33d 9b31 eabe 828f cabc

down4.double_conv.1.running_var f4 [64]
0.2729862 0.31649175 0.29687715 0.13277747 0.4486092 0.1885725 0.4079779 0.13152775
0.16338366 0.122562855 0.19082794 0.1690762 0.36753106 0.13676883 0.113199025 0.28622064
0.13604204 0.1981486 0.12023457 0.26878864 0.29107246 0.13366525 0.15205643 0.185698
0.23890966 0.14746249 0.3431345 0.25534412 0.20353016 0.4168951 0.30801663 0.16865121
0.14385873 0.32545155 0.2853046 0.18883568 0.25243568 0.16731592 0.21379292 0.16210955
0.13392875 0.33163935 0.11818565 0.2555546 0.11011305 0.1305038 0.1390815 0.40780887
0.28172132 0.18062401 0.15765347 0.13809407 0.28314906 0.19933222 0.37201506 0.24409588
0.22791776 0.124761894 0.1373911 0.3373343 0.30002066 0.2857248 0.13624795 0.29718876
00000000: d9c4 8b3e 350b a23e 4800 983e d1f6 073e
00000010: 1bb0 e53e 2619 413e 7be2 d03e 36af 063e
00000020: 0c4e 273e 3c02 fb3d 6668 433e 5022 2d3e
00000030: 082d bc3e 210d 0c3e e4d4 e73d 838b 923e
00000040: 9b4e 0b3e 77e7 4a3e 8b3d f63d aa9e 893e
00000050: 7307 953e 8bdf 083e aeb4 1b3e 9e27 3e3e
00000060: bca4 743e 6800 173e 53af af3e 77bc 823e
00000070: 366a 503e 4673 d53e 5bb4 9d3e e7b2 2c3e
00000080: b44f 133e 96a1 a63e 7213 923e 245e 413e
00000090: 403f 813e dd54 2b3e 88ec 5a3e 0c00 263e
000000a0: 9e24 093e a2cc a93e 510b f23d 0dd8 823e
000000b0: f382 e13d caa2 053e 616b 0e3e 53cc d03e
000000c0: c73d 903e 80f5 383e e96f 213e 8868 0d3e
000000d0: eaf8 903e bf1d 4c3e c278 be3e 45f4 793e
000000e0: 4663 693e 2a83 ff3d 41b0 0c3e 15b7 ac3e
000000f0: 4f9c 993e 854a 923e 9584 0b3e 2029 983e

outc.conv.weight f4 [2, 64, 1, 1]
0.09706573 0.23795903 0.25202632 0.01554026 0.23284851 -0.11189067 0.12580606 -0.09159557
0.10889651 -0.1634069 0.15734139 0.2545947 0.24395841 -0.08607853 -0.18089542 0.22651203
-0.025256751 -0.018698515 -0.08965319 0.12415903 0.00980813 -0.16322826 -0.10354735 -0.062029973
0.19996172 -0.13328484 0.12875512 0.20366602 0.22981358 0.11838756 0.12875794 -0.12749687
-0.035656895 0.088933 0.10545342 0.18439798 -0.005281202 0.065057226 0.18411273 0.23802042
0.2186169 0.22158822 0.19580646 0.09708586 -0.16871753 0.18464617 -0.12046241 0.20426527
0.06799821 0.1995716 -0.17492656 -0.15693323 0.28058103 0.2182614 -0.06404479 0.18521109
-0.15898858 -0.048481356 -0.167743 0.10942794 0.2069858 0.06540427 -0.07764162 0.18940566
-0.19819558 -0.107098624 -0.116799414 0.1046735 -0.28332344 0.06253412 -0.13060987 0.14073923
-0.1714042 0.054299757 -0.23865439 -0.18598661 -0.12661314 0.06502478 0.16513227 -0.09326348
0.16255476 0.112840764 0.06859041 -0.26096773 0.12917024 0.15933853 0.08716143 0.09520117
-0.159064 0.012254654 -0.16000064 -0.111663 -0.06451164 -0.26110184 -0.19471103 0.13819036
0.14674035 -0.23981208 -0.22331268 -0.18877082 0.14719135 0.15730026 -0.09487175 -0.10824865
-0.1805609 -0.1389221 -0.10462299 -0.20075893 0.15152468 -0.14779246 0.11238839 -0.19634102
-0.21964358 -0.20150352 0.18109189 -0.04122524 -0.22778916 -0.23597458 0.0801796 -0.26144844
-0.017945925 0.052108277 0.17459567 -0.1889841 -0.09265198 -0.19158316 0.07739379 -0.2581956
00000000: 66ca c63d 88ab 733e 9809 813e 939c 7e3c
00000010: d76f 6e3e f026 e5bd 4ed3 003e 7596 bbbd
00000020: 2205 df3d 2354 27be 1a1e 213e 3d5a 823e
00000030: 3cd0 793e f149 b0bd a63c 39be c5f2 673e
00000040: 3fe7 cebc a12d 99bc 179c b7bd 1747 fe3d
00000050: 47b2 203c 4f25 27be a210 d4bd 2413 7ebd
00000060: c4c2 4c3e d27b 08be 62d8 033e d38d 503e
00000070: 4054 6b3e 2d75 f23d 1fd9 033e 8a8e 02be
00000080: f70c 12bd 8122 b63d f6f7 d73d d3d2 3c3e
00000090: ef0d adbb b93c 853d 0c88 3c3e a0bb 733e
000000a0: 1cdd 5f3e 06e8 623e 7d81 483e f4d4 c63d
000000b0: 4ac4 2cbe e313 3d3e ffb4 f6bd ea2a 513e
000000c0: a542 8b3d 7f5c 4c3e f31f 33be 1bb3 20be
000000d0: 51a8 8f3e eb7f 5f3e ea29 83bd faa7 3d3e
000000e0: e7cd 22be 6394 46bd d2c4 2bbe c11b e03d
000000f0: 16f4 533e adf2 853d 9202 9fbd 8ff3 413e
00000100: c8f3 4abe 8656 dbbd 8834 efbd 0f5f d63d
00000110: c50f 91be e411 803d 98be 05be f21d 103e
00000120: 9584 2fbe 6c69 5e3d d161 74be 4673 3ebe
00000130: e0a6 01be b62b 853d 6f18 293e ec00 bfbd
00000140: c174 263e 0f19 e73d 2179 8c3d 909d 85be
00000150: 3445 043e a429 233e b181 b23d d5f8 c23d
00000160: ace1 22be bfc7 483c 35d7 23be 92af e4bd
00000170: ae1e 84bd 24af 85be 5462 47be c681 0d3e
00000180: 1a43 163e 4c91 75be 14ac 64be 234d 41be
00000190: 54b9 163e 5213 213e 1f4c c2bd 78b1 ddbd
000001a0: f5e4 38be 9841 0ebe 9444 d6bd c093 4dbe
000001b0: 4929 1b3e e856 17be e22b e63d 9f0d 49be
000001c0: 3fea 60be f056 4ebe 2770 393e ccdb 28bd
000001d0: 9041 69be 52a3 71be 3435 a43d 92dc 85be
000001e0: 5503 93bc 7d6f 553d 35c9 323e 0c85 41be
000001f0: 52c0 bdbd 602e 44be a380 9e3d 3732 84be

outc.conv.bias f4 [2]
0.09868394 -0.1454458
00000000: ce1a ca3d beef 14be
