net/onnx/unet_simp_small.onnx (onnx, 600182 bytes, 8 tensors)

53 f4 [64, 3, 3, 3]
00000000: f33e f03e d023 e73e 736d 5e3f 0497 633f
00000010: af8b 743e 6a14 fa3d 0f79 413e 03df c13e
00000020: f88e 263f ba01 863f e823 723f 6db3 68be
00000030: 22af 563f 3b38 5bbf d3aa 7cbe 871d b93e
00000040: 5846 5d3e 4d4f 2cbf 24dd f5be 928a 17bf
00000050: 1379 06bf e893 0e3f e31a 07bf f774 dabd
00000060: e9df 763c cb17 aa3e b39f 643e 03c7 5cbe
00000070: a26e 563b b08a 223f a985 30bf 434e 6dbd
00000080: 510e 10be 7f54 a93e e9c6 a9be b34f 27be
00000090: b03f 10bf 6695 133f 0b80 2b3f 5f85 07bf
000000a0: d5b9 e5bd 2bc8 113e 3863 12bf cb39 a43e
000000b0: 28f2 00bf 9057 153f 3950 4fbf 97cc 56bf
000000c0: 1b93 2dbf c9fa 43bf f205 6ebf ac78 783e
000000d0: 6f2c 39bf 45c0 993e 6043 4abf 480e 3abf
000000e0: 4add a63f 12fa 653f 4250 1abf 2025 4c3e
000000f0: 0206 a7be 5c45 40bf e702 acbf 4172 88bf
00000100: 46c3 4b3f d8a6 93bf dcb2 30bd 6ea0 3dbf
00000110: f9e1 97be d234 4abf 9c5a 733f 9fcd a8bf
00000120: 7ab9 4c3f 27e6 9e3f 8e0c 9a3e 9c1c 803e
00000130: a1df 0b3f 78d4 9abe bbaf d9bd ec2b 7e3e
00000140: 44d3 21bf d703 8c3f 6adf d53e 899c b1be
00000150: 963e b2bf 10c0 87bf b789 a83f 201d a43f
00000160: d6c2 9bbf d2ee 95bf 0212 7ebf 3e7d bf3f
00000170: aa03 38bf 0f2d 6c3f cfcd a7be d211 e33f
00000180: 1bc5 27bf 2768 6fbf be0b 09c0 6f7b 9f3f
00000190: 0e9d 51bf 0b9b 38bf 603f c23c 72e2 093f
000001a0: c89f 85bf 585b 293e b458 fc3e dd60 c7bd
000001b0: 2ff7 0e40 7c61 343f 8f4d 72bf 6523 21be
000001c0: 54d2 3e3e 53f8 2abf 8223 853f 5885 863f
000001d0: 36e2 0f3f 780e 34bd 42a4 ac3f 1468 d23e
000001e0: 65ed d93f 4eeb 6d3f 1ca1 e23f 52cb 98bf
000001f0: 6d86 ec3e 9364 05c0 7f94 95bf 0ef4 1840
00000200: 5bb7 08c0 1ee6 28bf 3d65 18c0 67e1 74be
00000210: a9df 1a3f 0084 09c0 0e4d 48bf 5f61 47bf
00000220: f9c9 dfbf 3cf7 1b40 da19 3f3f 12c1 11bf
00000230: dcee 14c0 e8ac f73e e7ed ae3f 21ed 64bf
00000240: 035a 4b40 862b 36bf 46a7 43bf 44f5 153e
00000250: 4c00 92bf c5fb c53f 49cc 4cbf 1db9 70be
00000260: 0baf 4840 3c98 f83f ec79 c8bf 9488 32c0
00000270: f5ab a23f ad69 5a40 b6f9 c1bf 555a 1cc0
00000280: 433a 0b40 67c0 99bf f6d9 943d 4c69 113f
00000290: 2200 0c3f 261a b7be cda1 c43d f695 3dbf
000002a0: 3c28 26be 1d92 c03e ff0c bf3e 0c1b 1b3f
000002b0: e3ee df3e 1599 033f 8884 08be f4cd 4d3d
000002c0: c16c e73e 746c 153f f67d 56be 31ae fa3e
000002d0: 25e8 8a3e 50c7 043f eada b73e 3de2 fcbd
000002e0: ad6a eb3e fffc 98be a547 4abe 1642 d9be
000002f0: af9a c83e 8350 8c3f 5cdb 893f 2ef7 8f3e
00000300: 2a14 17bc 3e3b 4b3f 6814 adbe db2a 6bbf
00000310: aa1e 5b3e aebc 19bf 73f2 bf3d c744 753f
00000320: 476c 58bf bb16 d0be 7529 a23e 44c4 95bf
00000330: 8238 fabe ed41 223e 99ba fcbe 35d6 673f
00000340: 5174 433f 90e2 88bf 3940 33bf 904b 95bf
00000350: 57bf 343e d6fc 7e3f 0f7c 2b3f 1964 84bf
00000360: a334 8fbd 9e6c 6bbf 0c9d 8e3f bdf8 94bf
00000370: 0e29 0a40 2b78 32bd 37ad f1bf 3ae8 6a3f
00000380: b9a3 b0bf 952c f63f e601 87be 1fdc e8bf
00000390: dfc2 dd3f 38b2 0540 a449 8a3f 740a fbba
000003a0: 2cbe 653e b1e4 b83e a2dd e5be 78d8 fcbf
000003b0: cead 06c0 5b8d 13c0 ac6b b2be fd49 f73f
000003c0: f850 04bf 40b3 1dbf 5862 6b3f 66cf 84bf
000003d0: cd32 aa3e a77b 3bbd ebef 8c3e 98a7 15bf
000003e0: 1287 2f3f 11d0 5b3f 4eca 113f a26f 85bf
000003f0: 0071 8c3f 4ec5 813e 4f74 01bf fdcf f23e
0.46923026 0.4514451 0.86885756 0.88902307 0.2388141 0.12210925 0.18893836 0.37865457
0.65061903 1.0469277 0.9458604 -0.22724696 0.8386098 -0.85632676 -0.2467454 0.3615534
0.21608865 -0.67308503 -0.4802028 -0.59195817 -0.52528495 0.5569444 -0.527754 -0.106668405
0.015068033 0.33221278 0.22326545 -0.21560292 0.003271975 0.6349287 -0.6895395 -0.057935964
-0.14067961 0.33072278 -0.3315957 -0.16338997 -0.5634718 0.5764984 0.66992253 -0.52937883
-0.11217085 0.14236514 -0.57182646 0.32075343 -0.503695 0.58336735 -0.80981785 -0.8390593
-0.6780259 -0.7655454 -0.9297782 0.24264783 -0.72333425 0.30029503 -0.79009056 -0.7267804
1.3036282 0.898347 -0.60278714 0.19936037 -0.3262177 -0.75105834 -1.3438386 -1.0659868
0.7959484 -1.1535292 -0.043139324 -0.7407292 -0.2966459 -0.7898685 0.95060134 -1.318775
0.79970515 1.2413987 0.30087703 0.25021827 0.54638106 -0.30240226 -0.10629221 0.24821442
-0.6321299 1.0938672 0.41772014 -0.3468974 -1.392535 -1.0605488 1.3167027 1.2821388
-1.2168834 -1.1713507 -0.9924623 1.4960096 -0.7188059 0.92256254 -0.32774207 1.7739813
-0.65535134 -0.935183 -2.1413417 1.2459544 -0.8188027 -0.72111577 0.02371186 0.53861153
-1.0439386 0.16538751 0.49286425 -0.09735272 2.233837 0.7046125 -0.94649595 -0.15736158
0.18634921 -0.6678516 1.0401461 1.0509443 0.56204545 -0.04395911 1.3487628 0.4109503
1.7025572 0.9293717 1.7705417 -1.1937048 0.4619631 -2.0842636 -1.1685942 2.389896
-2.1361911 -0.6597613 -2.381179 -0.23914109 0.6049753 -2.1486816 -0.78242576 -0.7788295
-1.7483512 2.436965 0.7464882 -0.56935227 -2.3270788 0.48374104 1.3666352 -0.8942433
3.1773689 -0.7116016 -0.76427114 0.14644343 -1.1406341 1.5467459 -0.79999214 -0.23508115
3.1356838 1.9421458 -1.5662208 -2.789586 1.2708727 3.4127 -1.5154331 -2.4430134
2.175431 -1.2011842 0.07268135 0.56801295 0.546877 -0.35762137 0.096011735 -0.7405695
-0.16226286 0.37611476 0.37314603 0.60588145 0.43736944 0.5140546 -0.13331807 0.05024524
0.4520016 0.5836861 -0.20946488 0.48961022 0.27130237 0.51866627 0.35909206 -0.12347839
0.45979825 -0.2988052 -0.19753893 -0.42433232 0.39180514 1.096207 1.0770068 0.2811827
-0.009221116 0.7938727 -0.3380463 -0.9186227 0.21398416 -0.6005353 0.093724154 0.9580807
-0.8454022 -0.40642342 0.31672254 -1.170052 -0.48871237 0.15845461 -0.49361113 0.9056123
0.7634936 -1.0694141 -0.7001987 -1.1663685 0.17651115 0.9960455 0.66986173 -1.0343047
-0.069924615 -0.9196261 1.1141677 -1.1638409 2.1587558 -0.043571632 -1.8880986 0.917606
-1.3799964 1.9232355 -0.26368636 -1.8192176 1.7325095 2.0890026 1.0803723 -0.0019152896
0.22435826 0.36111978 -0.44895655 -1.9753561 -2.1043582 -2.3055027 -0.34847772 1.9319454
-0.5168605 -0.6160164 0.91946936 -1.0375793 0.33241883 -0.04577222 0.27526793 -0.5845885
0.68565476 0.8586436 0.5694932 -1.0424693 1.0971985 0.25345844 -0.505681 0.47424307

54 f4 [64]
00000000: 1ee1 45c0 9505 5240 e588 1240 bfac f23f
00000010: fb4b 3bbf d436 d5bf 5e3b 40c0 9788 f93e
00000020: 7be5 3f3f 61d4 3cc0 b9f8 223f 86cb a13d
00000030: fd15 58c0 7916 5140 dbe6 3ac0 7ca6 0cc0
00000040: 65dd 4ac0 59bf 3ec0 5638 073e 4b96 4f40
00000050: bca2 ccbf 971f 9f3f 7c2a 833f c52d 0d40
00000060: 6552 3b40 ace6 1840 3400 b0bf fa70 1a40
00000070: 1132 d3bf 909c d43e a365 5740 4131 3f40
00000080: d5c2 903f 04f8 e3bf e8a0 a1bf 369e 933e
00000090: 1a52 a93d 6a88 91bf 4314 5640 cd46 9cbd
000000a0: 8f3a f53e 163a fbbf 7420 1c40 7abc 5240
000000b0: 6433 0ac0 1e9b 9a3e cc29 c03d d85f 76be
000000c0: c1c5 3e40 64b8 52c0 fc8e 1cc0 7106 0e40
000000d0: 1f8b 9d3f 2859 adbf 5e0f 0240 4e3f 633e
000000e0: 511a 073f e4de ce3f 6862 3f3d 46d9 603e
000000f0: 7a4d 5240 1961 483f 379b 5c3f 4ab0 4dc0
-3.091865 3.2815907 2.2896054 1.8958968 -0.7316281 -1.6657357 -3.0036235 0.48737022
0.74959534 -2.9504626 0.6366077 0.07900147 -3.376342 3.2669966 -2.9203403 -2.1976614
-3.1697628 -2.980429 0.13205084 3.2435482 -1.5987163 1.2431515 1.024734 2.2059186
2.926904 2.389079 -1.3750062 2.4131455 -1.6499654 0.41525698 3.3655784 2.9873812
1.1309458 -1.7810063 -1.262723 0.28831643 0.08267613 -1.1369755 3.3449867 -0.07630692
0.4789624 -1.9627101 2.4394808 3.2927537 -2.1593866 0.3019647 0.09382972 -0.24059999
2.98082 -3.2925043 -2.446227 2.2191432 1.2308081 -1.3542833 2.032188 0.22192118
0.5277453 1.6161771 0.046724707 0.21957883 3.2859788 0.7827316 0.8617434 -3.2138848

56 f4 [128, 64, 3, 3]
00000000: 6ca2 0fbe 2845 7dbd 7e4e efbd 57ac 963d
00000010: 84fd f23d 513b 08bd 70dc 903d 30a5 c63c
00000020: 4cdd d63d 223d de3d 22c7 8bbc 9200 b2bd
00000030: 85fc f33c 9c8a b33d e92a 593d 8a30 bdbc
00000040: e702 443d c1e5 153d 65e7 2bbd 4fee d93d
00000050: 8a39 573d fe8a 753c 4e76 3bbd c86f 423c
00000060: af83 91bd 1f2c fa3b 45b1 893d ed22 4bbd
00000070: 47bf d43d ef47 8abd 0515 2f3d 81d5 18bd
00000080: d396 c5bd f1e2 b1bc 7e59 133c 93c3 203d
00000090: 4f79 f33b 6fee 9d3d f037 df3d 9a28 1c3d
000000a0: 6828 4d3b 1c06 b7bd 761a 4fbd 6159 97bd
000000b0: ca88 a23c 1cd6 4cbc 0269 383b ad89 71bd
000000c0: b6c2 9cbd 499f 84bd dfad 48bd 5e6f 57bd
000000d0: c2c3 573d 70c5 51bd d445 c43c 89f3 0e3d
000000e0: 320e 0bbe 7a68 00be 64ce c53d 836e 9dbd
000000f0: 2a37 2b3d bb4b 89bd 9de1 cfbd f54d bf3d
00000100: ff95 babd 8bca 703d 26d6 a239 4d18 21bd
00000110: eefc ae3d e93e e9bc 980f 33bc 95a0 9c3d
00000120: 1b7c f7bd d7b5 2bbc 4de9 17bd 2eaa 81bd
00000130: 580d ee3c 3719 3fbc 16cb 283d c43a d53c
00000140: eba3 13bd 02d8 08be d9c4 753d 7ce1 2d3d
00000150: 1d0a 373b cabe b7bd b737 91bd af26 5e3d
00000160: fb77 e8bd a3c4 febc c19f c9bd 0004 aebc
00000170: ee4b b63d b55a a23d 63fa b03d e137 71bd
00000180: f769 24bd ca86 833c 57b0 d6bd acea 54bd
00000190: 804d ab3b 90ce 96bc f036 b0bd e013 503d
000001a0: 60e1 5dbd c525 edbd 0659 c4bb 65a7 61bc
000001b0: 23ba dfbd cd9a ae3d 62d0 f6bc ac52 f6bc
000001c0: e0bd 963c 69f5 aa3d 276b 9b3d 7e09 4a3d
000001d0: 910a 843d dd4f 48bd d25e 0dbd abfd f53d
000001e0: f3df 8c3d 9fce 7c3d 377d 4abc 359f de3d
000001f0: 391b 5abc 202c 4c3d 6fc6 9cbb 007a a33d
00000200: 1765 febd 60dc 92bc c172 42bd d60f 513d
00000210: 9deb f63d b8db 7c3d b2d9 1abd 64ab 643c
00000220: 0143 893d bf02 ce3d c0a3 b9bd 40ab 87bc
00000230: d71c a83c 167e 36bd ab71 9dbd 7765 21bd
00000240: 3ae0 f8bd e88b 6dbd 4d21 88bd fb08 06be
00000250: 5edb 97bd 93da 7fbc 42fe f13d 6d93 353c
00000260: 67aa afbd c1e3 63bd a615 abbd 4092 a43d
00000270: 44c2 543d 7477 873d 963a d93b 7a67 38bd
00000280: 3b25 cebd 32a5 12bd 8c89 483d 0cac 953c
00000290: c213 07be eec0 11be e5c5 9cbb 03a5 57bd
000002a0: e61c b73b d8be eb3d 38d5 d33d 5d20 98bd
000002b0: 128d 5d3d c9df 96bd 0e6f 453b 7c03 9fbd
000002c0: ca2a 88bd 2651 cfbd 1257 f1bd 0d62 373d
000002d0: 11fe e0bc 6a83 a9bd 9d14 fdbc 06b4 183d
000002e0: ac19 033d 702f 55bc a4d3 2ebc f6dd 583c
000002f0: 64c9 d9bd 7e9d ed3d 5bd5 d83d 19dd 8b3d
00000300: 5b6e d93d cdc2 b3bc 7c0e 803d 6c5a adbd
00000310: b86c a4bd 5073 7a3d 951c 96bc e842 cebd
00000320: 4303 2dbd f084 cb3d 188d 11bd 546c 12bd
00000330: f0fc 013d 964d b23d e965 39bd d873 94bd
00000340: 6ab8 963d d775 bfbd 2535 1fbd 4eab c8bd
00000350: 3658 ca3d 8dba a6bd e55e f93c 5914 a4bd
00000360: f3d2 e5bd 203a b43d f170 973d 47a8 06bd
00000370: 70e5 10bc 2078 2a3d d564 133d 2ab4 323d
00000380: 06d1 92ba 917e 89bd 9099 db3d b53a c8bd
00000390: bfa7 163d 3d8f 483d cfa1 2e3d a510 b3bd
000003a0: bff1 963d 6f07 413d ca00 66bc a606 01bd
000003b0: 1b51 9cbd d27a dbbd 97b5 63bc 7ac2 b93d
000003c0: 1c96 523d a33b 493d 0dbe d23d f842 163d
000003d0: 92a1 863d 3ca6 06bd 1c9f ea3d a06e ecbc
000003e0: 9824 de3d 2f46 c83d d67f a2bc 8727 7e3d
000003f0: acab 893d e12d 76bc 7337 bdbc 1aad 98bd
-0.14026803 -0.06183353 -0.11684893 0.0735709 0.118647605 -0.033259694 0.07073295 0.02424869
0.10491428 0.10851504 -0.017062727 -0.08691515 0.029783497 0.08766672 0.053019438 -0.023094434
0.04785433 0.036596064 -0.041968722 0.10641157 0.052545108 0.014986752 -0.04576712 0.011867471
-0.07105195 0.007634654 0.067232646 -0.049593855 0.10388046 -0.067520015 0.042744655 -0.03731299
-0.09647908 -0.02171466 0.008993505 0.039249014 0.0074302326 0.07711493 0.10899341 0.03812466
0.0031304602 -0.08936712 -0.050562344 -0.073900945 0.019840617 -0.0125022195 0.0028138761 -0.05896919
-0.07654326 -0.06475694 -0.04899394 -0.052596442 0.052676924 -0.05121368 0.023959078 0.034900222
-0.13579634 -0.12539855 0.096585065 -0.07687094 0.041800655 -0.067038976 -0.10150454 0.09341041
-0.09110641 0.05878691 0.000310586 -0.039329816 0.08544336 -0.02847238 -0.010929011 0.07647816
-0.12084218 -0.010480366 -0.037087727 -0.06331287 0.029059097 -0.0116637265 0.041209303 0.026028998
-0.036044996 -0.1336365 0.06000218 0.042451367 0.0027929612 -0.08971937 -0.07090705 0.05423611
-0.113510095 -0.031099623 -0.09844924 -0.021242142 0.08901201 0.07927457 0.086415075 -0.05889118
-0.04014012 0.016055483 -0.10482853 -0.051981613 0.0052277446 -0.018409044 -0.086042285 0.050800204
-0.054170012 -0.115794696 -0.0059920577 -0.01377282 -0.10924175 0.0852562 -0.030128662 -0.030068718
0.018401086 0.083475895 0.07588797 0.04932546 0.06447328 -0.04890429 -0.034514256 0.12011274
0.068786524 0.061720487 -0.012358955 0.1087021 -0.013312154 0.04984677 -0.0047843973 0.07982254
-0.12421625 -0.017927349 -0.04747272 0.051040493 0.120566584 0.061732978 -0.037805267 0.013956878
0.06702233 0.100591175 -0.09064436 -0.01656115 0.020521564 -0.04455384 -0.07687696 -0.039403405
-0.12152143 -0.057994753 -0.066469766 -0.13089363 -0.07414888 -0.015616077 0.11816074 0.011082512
-0.085774235 -0.055637125 -0.083537385 0.080357075 0.05194308 0.06614581 0.0066292984 -0.045020558
-0.10065695 -0.035802074 0.0489593 0.018270515 -0.13191131 -0.14233753 -0.004784333 -0.0526476
0.0055881618 0.1151101 0.103434026 -0.07428048 0.054089613 -0.073669024 0.0030126008 -0.077643365
-0.06648786 -0.101229 -0.117841855 0.044771243 -0.027464898 -0.08277018 -0.030893618 0.03728106
0.032006904 -0.013011798 -0.010670576 0.013236513 -0.10634115 0.11602305 0.10587569 0.068292804
0.10616752 -0.021943474 0.06252763 -0.08464512 -0.08028549 0.061145127 -0.018324176 -0.10071355
-0.04223944 0.09937465 -0.035534948 -0.03574784 0.03173536 0.087062046 -0.045263205 -0.07248658
0.07359393 -0.09348648 -0.038869042 -0.09798299 0.09880106 -0.081410505 0.030440757 -0.080116935
-0.11221876 0.08800149 0.07394589 -0.032875326 -0.008843765 0.041618466 0.035984833 0.04362885
-0.001120121 -0.06713594 0.10722649 -0.097768225 0.03678107 0.048964728 0.04263478 -0.08743409
0.07370328 0.04712623 -0.014038274 -0.03150048 -0.07632657 -0.107167855 -0.013898275 0.090702966
0.051412687 0.04912914 0.102901556 0.03668496 0.06573786 -0.032873377 0.11456129 -0.028861344
0.108468235 0.097790115 -0.019836348 0.062049415 0.06722197 -0.015025587 -0.02309773 -0.074548915

57 f4 [128]
00000000: 7e02 9a3e 19d4 07bf 12b8 273f fa65 d53e
00000010: eeaf 0ebf e2a2 f83d 894c 9a3f 812e 373f
00000020: 0bc8 543f 5d91 94bf a60d 853f b686 533f
00000030: 0297 693f 74b9 6bbf faff 693f e9c9 e8bf
00000040: c2fa f43d 1087 b3be 9a4d b13f 6ecc 7ebf
00000050: daca 21bf ee6b 183f f75d 55bf 3ade c6bf
00000060: 1a3a fcbe 9a06 8b3e a8ff 8abe af78 473f
00000070: 7c02 8ebf 6e57 91bd 5440 2bbe 73d8 48be
00000080: c134 603f 7a57 f73f 3802 013f 6bae cf3f
00000090: 0445 ad3e 3755 bd3f 38e1 92bf bf26 9c3f
000000a0: 7bf1 b9be 6104 4b3f b965 e03e b333 633f
000000b0: af24 0abf 29c5 7b3f 0eaa 303f 1a27 ae3f
000000c0: ba36 623f 6587 7f3f ffff 9b3f b51a 943f
000000d0: 5bc3 933d dd41 9b3d bec5 e8bf 288b 5ebd
000000e0: 9f1d 82be aad1 09bf 08c5 443f 1444 17bf
000000f0: f15e 493f 84c4 d53f be21 823f 4a7b 73be
00000100: 1e16 d23e 5b5b 1e3e 1e83 533f 7413 d63e
00000110: ecbf d83f 291a bdbe b656 863e 7f3d 393f
00000120: 0b3c 42be 9656 21bd 5d27 44bf 3609 593f
00000130: dc3a 4bbf fe68 6a3f e8c7 563f 7d3a 95bf
00000140: d4c4 bf3e 1a13 d2be 51f5 2f3f 2ed7 7f3f
00000150: 3aae 953f 16c6 833e 130e 84bf 00f7 833e
00000160: 7c9e 533f 8a00 483f 6db6 90bf 1858 cdbe
00000170: 9980 0f3e d02b f03b 7743 813f 3a1d 8d3f
00000180: 00e6 b9be ae68 a33e 6206 c1bf f6fa 493f
00000190: b695 653f 2fa8 26bf c1cf 273f 4e2f 0c3f
000001a0: 1afc 213f d4e4 a03f 9249 0c3f 18ca 2dbd
000001b0: d1b3 e5be 8d3f 6c3f b738 0240 a210 eebe
000001c0: e786 3ebf 9bcc 15bf c2da dfbd 101c 1bbf
000001d0: c8ac 313f 1fdd dd3d 1fe7 1b3f 7a34 a43e
000001e0: e189 0d3f 8cda 533d 7657 4abf f829 a93f
000001f0: ecdd 763e e7ea 8e3f 1d1f 443f 6f3e 4e3f
0.30080026 -0.5305801 0.65515244 0.41679364 -0.557372 0.121404424 1.2054607 0.71555334
0.8311774 -1.1606861 1.039479 0.8262743 0.91246045 -0.92079854 0.91406214 -1.8186618
0.11961891 -0.35063982 1.3851807 -0.99530685 -0.6320015 0.5953969 -0.83346504 -1.5536568
-0.49263078 0.27153474 -0.27148175 0.77918524 -1.1094508 -0.07096754 -0.16723758 -0.19613819
0.87580496 1.9323571 0.5039401 1.6225103 0.33841717 1.479163 -1.1474981 1.2199324
-0.36317047 0.79303557 0.43827608 0.8875076 -0.53962225 0.9834772 0.6900948 1.3605683
0.88364756 0.9981597 1.2187499 1.157065 0.072149955 0.07580922 -1.8185346 -0.05433193
-0.25413224 -0.53835547 0.76863146 -0.59088254 0.78660494 1.6700597 1.0166547 -0.237775
0.410325 0.15464537 0.82621944 0.41811717 1.693357 -0.3693402 0.2623803 0.7235946
-0.18968217 -0.039389215 -0.76622564 0.8477968 -0.7938669 0.91566455 0.8389878 -1.1658474
0.37454855 -0.41030198 0.687337 0.99937713 1.1693795 0.25737065 -1.0316795 0.25774384
0.826637 0.7812582 -1.1305672 -0.40106273 0.140139 0.0073294416 1.0098714 1.1024544
-0.3630829 0.31915802 -1.5080073 0.7889856 0.89681566 -0.6510038 0.6555138 0.5475968
0.632753 1.2569833 0.5479976 -0.04242906 -0.44863752 0.9228447 2.0347116 -0.46497065
-0.74424595 -0.5851533 -0.109303966 -0.60589695 0.6940427 0.10833191 0.6089954 0.32071286
0.5528851 0.051722094 -0.79039705 1.3215933 0.24108094 1.1165437 0.76609975 0.80564016

59 f4 [64, 128, 3, 3]
00000000: 432a d23c d9b4 ecbc b69a 00bc 6d82 65bb
00000010: e3b0 a03b a17e 1dbc 8ff0 c73b 74a8 863c
00000020: 7835 cc3c 7521 263d 8e57 69bc 28c9 263d
00000030: fdbf b73b 5c9e 383c 1e7c 303d 00ec 833c
00000040: 0a5f 42bd 001c 923d 7110 353d 10b9 913b
00000050: babf 893d 6cff b83c a28b ec3c 4a55 3a3b
00000060: ec3d 0ebd 3ddd 16bd 131b f33c 3fcd ab3d
00000070: 4c7e 7fbc 665c 873d 4d2c d3bc b658 ae3b
00000080: d72e 153c a76d c73c 7e6b c73c fc76 5dbd
00000090: 04e3 bdbd 9318 4bbc cff4 b5bc 3b35 f7bc
000000a0: 5d9d 79bc 74ca 88bd f68b 65bb 2f97 37bd
000000b0: 70af e83c 1d16 3cbd b5ad 573d c1c6 86bd
000000c0: a400 1d3d fb07 5ebc 1617 89bb 6bb8 2a3c
000000d0: 42cd f2bb 6159 3d3d 9f89 8bbd fc69 ea3c
000000e0: bbf7 213c a213 e9bc 8889 393d f26b 873d
000000f0: 967a a73a e168 67bd ec37 333d 1421 a53c
00000100: 0b7e 5abd 093d 39bc 2c1d 49ba ee61 0d3d
00000110: dfb3 29bd 8f3f dd3c 5f7c f03c e76a d83b
00000120: bec1 743d c3a1 7c3d b0b5 c93c 654c c73c
00000130: aa02 863d 6c43 7dba ea15 2ebd 84cd 3ebd
00000140: 9a7d 48bc 4ed9 453d f064 92bc 4071 333d
00000150: fe11 9ebb 4c16 d03c 1c0b a2bd bf60 0bbd
00000160: 63c9 a2bd a3b6 6bbd 6e7d b6bc 9f5d bc3a
00000170: 4d42 253d 0ad6 cdbc 8ae3 1d3c 60e8 04bc
00000180: 6370 1d3d 9624 593d 3cd6 24bd 0835 74bd
00000190: 174f a73c 8e30 28bc c6e2 8c3d 52e8 303d
000001a0: 2149 103d c853 033d e7d9 293d 8a6e 10bc
000001b0: 0658 fe3c caa3 54bd 5f66 073d b9fb 62bd
000001c0: 0dde ef3c 62f3 363d 1a55 133d 47a4 09bd
000001d0: d98c 9d3c c0e7 e83c f4ad 49bd 5a1b 283d
000001e0: fb84 153c 90cc 1dbd dd97 763d 7ddf ff3c
000001f0: e18e be3c 300e 053d de03 96bd 2260 91bd
00000200: 6044 aabc 2f3e 8ebd 7bda 48ba bd64 82bd
00000210: 0f5d 813c c047 15bd d1b4 13bc 5ede 683d
00000220: 9f9a 14bd d5c7 3b3d 7cc1 95bd 7e1c 20bd
00000230: 1d10 21bd 4685 e9bc bb05 c3bc dd27 ec3b
00000240: 91d9 57bc 7bb9 74bd 486b 093d e2f0 a63d
00000250: d13f 783d 69f5 98bc 52c9 933d 7841 703b
00000260: 26a5 423c b408 693d f732 a33d 6f72 813d
00000270: 017f cd3c 75eb d93c ff25 de3c a24f 213d
00000280: b0a9 933d 9278 b93d 1a04 e5bc 97ea 0e3b
00000290: 7585 833d 1ea5 69bc 25f7 1cbd 6ab1 4a3d
000002a0: 613d 903c c383 4fbc 6e06 b2bc aad0 39bb
000002b0: 3ceb c4bc 2e2b a2bb 4b2f 743c 1279 f53c
000002c0: 0aa4 563d a426 4e3c 009b a93c 8d4a 3bbd
000002d0: 0331 a4bb 691e 2fbc 3a83 aebd aa39 abbc
000002e0: 9ba3 c7bb b82a 16bc 7f45 f63c da6a f13c
000002f0: ff50 8aba 1d7d 133d 08c1 eabc 3284 873d
00000300: b0e2 f7bc f2c1 813c d5fa 22bd 7eb9 b4bc
00000310: 25d3 c93c 0f33 99bc ed50 0bbd 8bb2 a9bc
00000320: ddf5 d53c 58fd edbc d31a 3b3d 0cc0 93bb
00000330: c496 50bb e6ae bb3b 4e77 0e3d 3ebe 9b3d
00000340: c04f 0c3d decf b33d 5b55 413d d4e8 3cbd
00000350: da23 c03c ab8e 86bb ff86 023d 0fca 1dbd
00000360: eb34 9ebc 4835 babc a172 58bb dfac 0ebd
00000370: 5261 15bd b04d 86bc 48a2 6fbd e518 2abc
00000380: 6dc7 07bc 2779 14bc c8a4 1c3b 24ee 42bd
00000390: 1583 493d a4ad 51bc dc98 3e3d 53e7 2c3d
000003a0: c1bf 0fbd fedd 98bc 4894 cf3c 40ed 84bc
000003b0: 2aec f1bb a970 793c 9878 6fbc 7c7c 1a3d
000003c0: 5a3c 213b 12c4 d03c 1c45 2cbc 9ce6 73bc
000003d0: 01f8 52bd 980e 04bd 90c4 683d 5a56 c4bc
000003e0: c549 cf3c 50dc 903d b641 cebc 567c ebbc
000003f0: 04f5 9f3d 5c22 2e3c 3a4a d0bc c4f4 853d
0.025654918 -0.028894829 -0.007849386 -0.0035020367 0.004903899 -0.00961271 0.006101675 0.016437747
0.02492784 0.04055925 -0.014242066 0.04071918 0.0056076036 0.011268225 0.043087117 0.016103745
-0.047453918 0.07134247 0.044205133 0.00444711 0.06726022 0.022582732 0.028875176 0.0028432184
-0.034727022 -0.036832083 0.029675996 0.08388757 -0.015594076 0.066094205 -0.02577796 0.0053206338
0.009105406 0.024344278 0.024343248 -0.05406855 -0.092718154 -0.012395996 -0.02221146 -0.03017675
-0.015235272 -0.0667924 -0.003502605 -0.044821914 0.028403968 -0.045919526 0.052655894 -0.06580878
0.03833069 -0.013551707 -0.0041836603 0.010419945 -0.0074097225 0.046227816 -0.068133585 0.02861499
0.009885724 -0.028451744 0.045297176 0.06612386 0.0012777622 -0.056496505 0.043754503 0.020157374
-0.05334286 -0.011306056 -0.00076718885 0.03451722 -0.041431304 0.027007846 0.02935618 0.0066045406
0.05975508 0.061677705 0.024622768 0.02432842 0.06543477 -0.0009661231 -0.042501368 -0.046582714
-0.012236977 0.04830294 -0.017870396 0.043809175 -0.004823922 0.025401257 -0.07912275 -0.03402781
-0.07948568 -0.057547223 -0.022276606 0.0014371163 0.040346432 -0.025126476 0.009636769 -0.008112043
0.03843726 0.053013407 -0.040243372 -0.059620887 0.020423455 -0.010265483 0.06879191 0.043190308
0.03522599 0.032062322 0.041467573 -0.008815417 0.031047832 -0.051914014 0.033056613 -0.055415843
0.029280687 0.0446657 0.03596983 -0.033603933 0.0192322 0.02843082 -0.04923816 0.04104171
0.009125943 -0.038525164 0.06020342 0.031234497 0.02326149 0.032484233 -0.07324956 -0.07098414
-0.020784557 -0.06945454 -0.00076619507 -0.063668706 0.015791444 -0.03644538 -0.009015278 0.05685269
-0.03628027 0.04584487 -0.07312295 -0.039089672 -0.039322007 -0.028505933 -0.023806443 0.0072069005
-0.0131744305 -0.0597472 0.033549577 0.081514135 0.060607735 -0.018671708 0.07216133 0.0036660116
0.011880195 0.056893066 0.07968705 0.063206546 0.025084974 0.026601532 0.027117727 0.039382584
0.072101 0.090562 -0.027956057 0.0021807307 0.06421939 -0.014260558 -0.038321633 0.0494856
0.017607393 -0.012665692 -0.021731582 -0.0028353133 -0.02403795 -0.004948995 0.014903854 0.029964957
0.052402534 0.012582455 0.020703793 -0.045725394 -0.0050107255 -0.010688403 -0.08521123 -0.02090152
-0.0060925013 -0.009165458 0.030062435 0.029469896 -0.0010552703 0.03600799 -0.028656498 0.06617011
-0.03025946 0.01583955 -0.039789993 -0.022061106 0.024636814 -0.018701104 -0.034012724 -0.020715019
0.026118213 -0.029051468 0.04567988 -0.0045089778 -0.0031828145 0.0057276366 0.034781747 0.07604645
0.034255743 0.08779882 0.047200542 -0.04612048 0.023454595 -0.004106363 0.031867024 -0.038522776
-0.019312343 -0.022730485 -0.0033027309 -0.03483283 -0.036469765 -0.016394466 -0.058504373 -0.010381912
-0.008287293 -0.009062088 0.0023901928 -0.04759039 0.049197275 -0.012797747 0.046532497 0.042212795
-0.03509498 -0.018660542 0.02533926 -0.01622641 -0.0073828893 0.015224614 -0.014616154 0.037716374
0.0024602623 0.025484119 -0.010514524 -0.0148865245 -0.051506046 -0.03224048 0.05682808 -0.023966957
0.02530373 0.07073271 -0.025177818 -0.028745811 0.07810405 0.010628309 -0.025426019 0.06540826

60 f4 [64]
00000000: 1016 a83e 0059 f83c 2944 18bf 6a5b ccbf
00000010: 94cf cabe 7ba2 2e3f 9723 71bf 76b0 0740
00000020: e57a 5bbe b5b6 f33f 4d9b 32bf 5021 90bf
00000030: f8e0 ecbe 1685 adbe d845 c13f 0a24 c4be
00000040: 0d32 0a40 ed10 6bbf 25e4 f43f eac6 bebe
00000050: 9298 273f f7ed 0c40 8265 17be 6810 e63f
00000060: 77db 13bf 1ab4 eebf c050 bbbe 03b7 103f
00000070: 4c36 80be 74c0 26bd 6e7b a1be f9c4 4b3f
00000080: 7077 933f 34b6 43bd 7207 f1bd 525e 563d
00000090: 1c9a 80bd acac f5be bfc2 46bf 3818 cf3f
000000a0: dd94 ae3f 41f2 d5be cba7 873e 46f0 e2bd
000000b0: 401a e43f 0d65 7f3f 3aa5 bc3f 26bb 2dbf
000000c0: fd1c 1cbf 554e 0bbf b995 c73f 1bd2 f53e
000000d0: b4d8 4a3e dc9a 843e b234 273d de98 433d
000000e0: 6d22 e63c 6b2d e5bf faf3 2040 5858 f1bc
000000f0: 7263 35be 8821 22be 4357 a53f 1b22 133e
0.32829332 0.030315876 -0.59479004 -1.5965397 -0.39611495 0.68216676 -0.9419493 2.1201453
-0.214336 1.9040133 -0.6976822 -1.1260166 -0.46265388 -0.338906 1.509944 -0.38308746
2.1593049 -0.918227 1.9132124 -0.37261134 0.6546718 2.2020242 -0.14784816 1.7973757
-0.5775675 -1.8648713 -0.36585045 0.56529254 -0.25041425 -0.04071088 -0.31539482 0.7959743
1.1520824 -0.047781184 -0.11768998 0.052336045 -0.06279394 -0.479833 -0.7764091 1.6179266
1.363918 -0.41786388 0.26495203 -0.11080985 1.7820511 0.99763566 1.4737923 -0.6786369
-0.6098173 -0.544164 1.5592567 0.4801186 0.19809228 0.25899398 0.04082174 0.047753207
0.028092587 -1.7904485 2.5148911 -0.02946107 -0.17713717 -0.15833104 1.2917255 0.14368479

outc.conv.bias f4 [2]
00000000: ce1a ca3d beef 14be
0.09868394 -0.1454458

outc.conv.weight f4 [2, 64, 1, 1]
00000000: 66ca c63d 88ab 733e 9809 813e 939c 7e3c
00000010: d76f 6e3e f026 e5bd 4ed3 003e 7596 bbbd
00000020: 2205 df3d 2354 27be 1a1e 213e 3d5a 823e
00000030: 3cd0 793e f149 b0bd a63c 39be c5f2 673e
00000040: 3fe7 cebc a12d 99bc 179c b7bd 1747 fe3d
00000050: 47b2 203c 4f25 27be a210 d4bd 2413 7ebd
00000060: c4c2 4c3e d27b 08be 62d8 033e d38d 503e
00000070: 4054 6b3e 2d75 f23d 1fd9 033e 8a8e 02be
00000080: f70c 12bd 8122 b63d f6f7 d73d d3d2 3c3e
00000090: ef0d adbb b93c 853d 0c88 3c3e a0bb 733e
000000a0: 1cdd 5f3e 06e8 623e 7d81 483e f4d4 c63d
000000b0: 4ac4 2cbe e313 3d3e ffb4 f6bd ea2a 513e
000000c0: a542 8b3d 7f5c 4c3e f31f 33be 1bb3 20be
000000d0: 51a8 8f3e eb7f 5f3e ea29 83bd faa7 3d3e
000000e0: e7cd 22be 6394 46bd d2c4 2bbe c11b e03d
000000f0: 16f4 533e adf2 853d 9202 9fbd 8ff3 413e
00000100: c8f3 4abe 8656 dbbd 8834 efbd 0f5f d63d
00000110: c50f 91be e411 803d 98be 05be f21d 103e
00000120: 9584 2fbe 6c69 5e3d d161 74be 4673 3ebe
00000130: e0a6 01be b62b 853d 6f18 293e ec00 bfbd
00000140: c174 263e 0f19 e73d 2179 8c3d 909d 85be
00000150: 3445 043e a429 233e b181 b23d d5f8 c23d
00000160: ace1 22be bfc7 483c 35d7 23be 92af e4bd
00000170: ae1e 84bd 24af 85be 5462 47be c681 0d3e
00000180: 1a43 163e 4c91 75be 14ac 64be 234d 41be
00000190: 54b9 163e 5213 213e 1f4c c2bd 78b1 ddbd
000001a0: f5e4 38be 9841 0ebe 9444 d6bd c093 4dbe
000001b0: 4929 1b3e e856 17be e22b e63d 9f0d 49be
000001c0: 3fea 60be f056 4ebe 2770 393e ccdb 28bd
000001d0: 9041 69be 52a3 71be 3435 a43d 92dc 85be
000001e0: 5503 93bc 7d6f 553d 35c9 323e 0c85 41be
000001f0: 52c0 bdbd 602e 44be a380 9e3d 3732 84be
0.09706573 0.23795903 0.25202632 0.01554026 0.23284851 -0.11189067 0.12580606 -0.09159557
0.10889651 -0.1634069 0.15734139 0.2545947 0.24395841 -0.08607853 -0.18089542 0.22651203
-0.025256751 -0.018698515 -0.08965319 0.12415903 0.00980813 -0.16322826 -0.10354735 -0.062029973
0.19996172 -0.13328484 0.12875512 0.20366602 0.22981358 0.11838756 0.12875794 -0.12749687
-0.035656895 0.088933 0.10545342 0.18439798 -0.005281202 0.065057226 0.18411273 0.23802042
0.2186169 0.22158822 0.19580646 0.09708586 -0.16871753 0.18464617 -0.12046241 0.20426527
0.06799821 0.1995716 -0.17492656 -0.15693323 0.28058103 0.2182614 -0.06404479 0.18521109
-0.15898858 -0.048481356 -0.167743 0.10942794 0.2069858 0.06540427 -0.07764162 0.18940566
-0.19819558 -0.107098624 -0.116799414 0.1046735 -0.28332344 0.06253412 -0.13060987 0.14073923
-0.1714042 0.054299757 -0.23865439 -0.18598661 -0.12661314 0.06502478 0.16513227 -0.09326348
0.16255476 0.112840764 0.06859041 -0.26096773 0.12917024 0.15933853 0.08716143 0.09520117
-0.159064 0.012254654 -0.16000064 -0.111663 -0.06451164 -0.26110184 -0.19471103 0.13819036
0.14674035 -0.23981208 -0.22331268 -0.18877082 0.14719135 0.15730026 -0.09487175 -0.10824865
-0.1805609 -0.1389221 -0.10462299 -0.20075893 0.15152468 -0.14779246 0.11238839 -0.19634102
-0.21964358 -0.20150352 0.18109189 -0.04122524 -0.22778916 -0.23597458 0.0801796 -0.26144844
-0.017945925 0.052108277 0.17459567 -0.1889841 -0.09265198 -0.19158316 0.07739379 -0.2581956
